…
          (o_proj): Linear4bit(in_features=4096, out_features=4096, bias=False)
        )
        (mlp): LlamaMLP(
          (gate_proj): Linear4bit(in_features=4096, out_features=14336, bias=False)
          (up_proj): Linear4bit(in_features=4096, out_features=14336, bias=False)
          (down_proj): Linear4bit(in_features=14336, out_features=4096, bias=False)
          (act_fn): SiLU()
        )
        (input_layernorm): LlamaRMSNorm((4096,), eps=1e-05)
        (post_attention_layernorm): LlamaRMSNorm((4096,), eps=1e-05)
      )
    )
    (norm): LlamaRMSNorm((4096,), eps=1e-05)
    (rotary_emb): LlamaRotaryEmbedding()
  )
  (lm_head): Linear(in_features=4096, out_features=128256, bias=False)
)



PeftModelForCausalLM(
  (base_model): LoraModel(
    (model): LlamaForCausalLM(
      (model): LlamaModel(
        (embed_tokens): Embedding(128256, 4096, padding_idx=128004)
        (layers): ModuleList(
          (0-31): 32 x LlamaDecoderLayer(
            (self_attn): LlamaAttention(
              (q_proj): lora.Linear4bit(
                (base_layer): Linear4bit(in_features=4096, out_features=4096, bias=False)
                (lora_dropout): ModuleDict(
                  (default): Identity()
                )
                (lora_A): ModuleDict(
                  (default): Linear(in_features=4096, out_features=64, bias=False)
                )
                (lora_B): ModuleDict(
                  (default): Linear(in_features=64, out_features=4096, bias=False)
                )
                (lora_embedding_A): ParameterDict()
                (lora_embedding_B): ParameterDict()
                (lora_magnitude_vector): ModuleDict()
              )
              (k_proj): lora.Linear4bit(
                (base_layer): Linear4bit(in_features=4096, out_features=1024, bias=False)
                (lora_dropout): ModuleDict(
                  (default): Identity()
                )
                (lora_A): ModuleDict(
                  (default): Linear(in_features=4096, out_features=64, bias=False)
                )
                (lora_B): ModuleDict(
                  (default): Linear(in_features=64, out_features=1024, bias=False)
                )
                (lora_embedding_A): ParameterDict()
                (lora_embedding_B): ParameterDict()
                (lora_magnitude_vector): ModuleDict()
              )
              (v_proj): lora.Linear4bit(
                (base_layer): Linear4bit(in_features=4096, out_features=1024, bias=False)
                (lora_dropout): ModuleDict(
                  (default): Identity()
                )
                (lora_A): ModuleDict(
                  (default): Linear(in_features=4096, out_features=64, bias=False)
                )
                (lora_B): ModuleDict(
                  (default): Linear(in_features=64, out_features=1024, bias=False)
                )
                (lora_embedding_A): ParameterDict()
                (lora_embedding_B): ParameterDict()
                (lora_magnitude_vector): ModuleDict()
              )
              (o_proj): lora.Linear4bit(
                (base_layer): Linear4bit(in_features=4096, out_features=4096, bias=False)
                (lora_dropout): ModuleDict(
                  (default): Identity()
                )
                (lora_A): ModuleDict(
                  (default): Linear(in_features=4096, out_features=64, bias=False)
                )
                (lora_B): ModuleDict(
                  (default): Linear(in_features=64, out_features=4096, bias=False)
                )
                (lora_embedding_A): ParameterDict()
                (lora_embedding_B): ParameterDict()
                (lora_magnitude_vector): ModuleDict()
              )
            )
            (mlp): LlamaMLP(
              (gate_proj): lora.Linear4bit(
                (base_layer): Linear4bit(in_features=4096, out_features=14336, bias=False)
                (lora_dropout): ModuleDict(
                  (default): Identity()
                )
                (lora_A): ModuleDict(
                  (default): Linear(in_features=4096, out_features=64, bias=False)
                )
                (lora_B): ModuleDict(
                  (default): Linear(in_features=64, out_features=14336, bias=False)
                )
                (lora_embedding_A): ParameterDict()
                (lora_embedding_B): ParameterDict()
                (lora_magnitude_vector): ModuleDict()
              )
              (up_proj): lora.Linear4bit(
                (base_layer): Linear4bit(in_features=4096, out_features=14336, bias=False)
                (lora_dropout): ModuleDict(
                  (default): Identity()
                )
                (lora_A): ModuleDict(
                  (default): Linear(in_features=4096, out_features=64, bias=False)
                )
                (lora_B): ModuleDict(
                  (default): Linear(in_features=64, out_features=14336, bias=False)
                )
                (lora_embedding_A): ParameterDict()
                (lora_embedding_B): ParameterDict()
                (lora_magnitude_vector): ModuleDict()
              )
              (down_proj): lora.Linear4bit(
                (base_layer): Linear4bit(in_features=14336, out_features=4096, bias=False)
                (lora_dropout): ModuleDict(
                  (default): Identity()
                )
                (lora_A): ModuleDict(
                  (default): Linear(in_features=14336, out_features=64, bias=False)
                )
                (lora_B): ModuleDict(
                  (default): Linear(in_features=64, out_features=4096, bias=False)
                )
                (lora_embedding_A): ParameterDict()
                (lora_embedding_B): ParameterDict()
                (lora_magnitude_vector): ModuleDict()
              )
              (act_fn): SiLU()
            )
            (input_layernorm): LlamaRMSNorm((4096,), eps=1e-05)
            (post_attention_layernorm): LlamaRMSNorm((4096,), eps=1e-05)
          )
        )
        (norm): LlamaRMSNorm((4096,), eps=1e-05)
        (rotary_emb): LlamaRotaryEmbedding()
      )
      (lm_head): Linear(in_features=4096, out_features=128256, bias=False)
    )
  )
)
   \\   /|    Num examples = 2,000 | Num Epochs = 3
O^O/ \_/ \    Batch size per device = 8 | Gradient Accumulation steps = 2
\        /    Total batch size = 16 | Total steps = 375
 "-____-"     Number of trainable parameters = 167,772,160

  0%|                                                                                                       | 0/375 [00:00<?, ?it/s]
…
[0;32m-> 1709[0m [38;5;28;01mraise[39;00m [38;5;167;01mAttributeError[39;00m([38;5;124mf[39m[38;5;124m"[39m[38;5;124m'[39m[38;5;132;01m{[39;00m[38;5;28mtype[39m([38;5;28mself[39m)[38;5;241m.[39m[38;5;18m__name__[39m[38;5;132;01m}[39;00m[38;5;124m'[39m[38;5;124m object has no attribute [39m[38;5;124m'[39m[38;5;132;01m{[39;00mname[38;5;132;01m}[39;00m[38;5;124m'[39m[38;5;124m"[39m)

[0;31mAttributeError[0m: 'LlamaAttention' object has no attribute 'rotary_emb'


PeftModelForCausalLM(
  (base_model): LoraModel(
    (model): LlamaForCausalLM(
      (model): LlamaModel(
        (embed_tokens): Embedding(128256, 4096, padding_idx=128004)
        (layers): ModuleList(
          (0-31): 32 x LlamaDecoderLayer(
            (self_attn): LlamaAttention(
              (q_proj): lora.Linear4bit(
                (base_layer): Linear4bit(in_features=4096, out_features=4096, bias=False)
                (lora_dropout): ModuleDict(
                  (default): Identity()
                )
                (lora_A): ModuleDict(
                  (default): Linear(in_features=4096, out_features=64, bias=False)
                )
                (lora_B): ModuleDict(
                  (default): Linear(in_features=64, out_features=4096, bias=False)
                )
                (lora_embedding_A): ParameterDict()
                (lora_embedding_B): ParameterDict()
                (lora_magnitude_vector): ModuleDict()
              )
              (k_proj): lora.Linear4bit(
                (base_layer): Linear4bit(in_features=4096, out_features=1024, bias=False)
                (lora_dropout): ModuleDict(
                  (default): Identity()
                )
                (lora_A): ModuleDict(
                  (default): Linear(in_features=4096, out_features=64, bias=False)
                )
                (lora_B): ModuleDict(
                  (default): Linear(in_features=64, out_features=1024, bias=False)
                )
                (lora_embedding_A): ParameterDict()
                (lora_embedding_B): ParameterDict()
                (lora_magnitude_vector): ModuleDict()
              )
              (v_proj): lora.Linear4bit(
                (base_layer): Linear4bit(in_features=4096, out_features=1024, bias=False)
                (lora_dropout): ModuleDict(
                  (default): Identity()
                )
                (lora_A): ModuleDict(
                  (default): Linear(in_features=4096, out_features=64, bias=False)
                )
                (lora_B): ModuleDict(
                  (default): Linear(in_features=64, out_features=1024, bias=False)
                )
                (lora_embedding_A): ParameterDict()
                (lora_embedding_B): ParameterDict()
                (lora_magnitude_vector): ModuleDict()
              )
              (o_proj): lora.Linear4bit(
                (base_layer): Linear4bit(in_features=4096, out_features=4096, bias=False)
                (lora_dropout): ModuleDict(
                  (default): Identity()
                )
                (lora_A): ModuleDict(
                  (default): Linear(in_features=4096, out_features=64, bias=False)
                )
                (lora_B): ModuleDict(
                  (default): Linear(in_features=64, out_features=4096, bias=False)
                )
                (lora_embedding_A): ParameterDict()
                (lora_embedding_B): ParameterDict()
                (lora_magnitude_vector): ModuleDict()
              )
            )
            (mlp): LlamaMLP(
              (gate_proj): lora.Linear4bit(
                (base_layer): Linear4bit(in_features=4096, out_features=14336, bias=False)
                (lora_dropout): ModuleDict(
                  (default): Identity()
                )
                (lora_A): ModuleDict(
                  (default): Linear(in_features=4096, out_features=64, bias=False)
                )
                (lora_B): ModuleDict(
                  (default): Linear(in_features=64, out_features=14336, bias=False)
                )
                (lora_embedding_A): ParameterDict()
                (lora_embedding_B): ParameterDict()
                (lora_magnitude_vector): ModuleDict()
              )
              (up_proj): lora.Linear4bit(
                (base_layer): Linear4bit(in_features=4096, out_features=14336, bias=False)
                (lora_dropout): ModuleDict(
                  (default): Identity()
                )
                (lora_A): ModuleDict(
                  (default): Linear(in_features=4096, out_features=64, bias=False)
                )
                (lora_B): ModuleDict(
                  (default): Linear(in_features=64, out_features=14336, bias=False)
                )
                (lora_embedding_A): ParameterDict()
                (lora_embedding_B): ParameterDict()
                (lora_magnitude_vector): ModuleDict()
              )
              (down_proj): lora.Linear4bit(
                (base_layer): Linear4bit(in_features=14336, out_features=4096, bias=False)
                (lora_dropout): ModuleDict(
                  (default): Identity()
                )
                (lora_A): ModuleDict(
                  (default): Linear(in_features=14336, out_features=64, bias=False)
                )
                (lora_B): ModuleDict(
                  (default): Linear(in_features=64, out_features=4096, bias=False)
                )
                (lora_embedding_A): ParameterDict()
                (lora_embedding_B): ParameterDict()
                (lora_magnitude_vector): ModuleDict()
              )
              (act_fn): SiLU()
            )
            (input_layernorm): LlamaRMSNorm((4096,), eps=1e-05)
            (post_attention_layernorm): LlamaRMSNorm((4096,), eps=1e-05)
          )
        )
        (norm): LlamaRMSNorm((4096,), eps=1e-05)
        (rotary_emb): LlamaRotaryEmbedding()
      )
      (lm_head): Linear(in_features=4096, out_features=128256, bias=False)
    )
  )
)


[0;31m---------------------------------------------------------------------------[0m
[0;31mNameError[0m                                 Traceback (most recent call last)
Cell [0;32mIn[29], line 1[0m
[0;32m----> 1[0m [43mmode[49m

[0;31mNameError[0m: name 'mode' is not defined



PeftModelForCausalLM(
  (base_model): LoraModel(
    (model): LlamaForCausalLM(
      (model): LlamaModel(
        (embed_tokens): Embedding(128256, 4096, padding_idx=128004)
        (layers): ModuleList(
          (0-31): 32 x LlamaDecoderLayer(
            (self_attn): LlamaAttention(
              (q_proj): lora.Linear4bit(
                (base_layer): Linear4bit(in_features=4096, out_features=4096, bias=False)
                (lora_dropout): ModuleDict(
                  (default): Identity()
                )
                (lora_A): ModuleDict(
                  (default): Linear(in_features=4096, out_features=64, bias=False)
                )
                (lora_B): ModuleDict(
                  (default): Linear(in_features=64, out_features=4096, bias=False)
                )
                (lora_embedding_A): ParameterDict()
                (lora_embedding_B): ParameterDict()
                (lora_magnitude_vector): ModuleDict()
              )
              (k_proj): lora.Linear4bit(
                (base_layer): Linear4bit(in_features=4096, out_features=1024, bias=False)
                (lora_dropout): ModuleDict(
                  (default): Identity()
                )
                (lora_A): ModuleDict(
                  (default): Linear(in_features=4096, out_features=64, bias=False)
                )
                (lora_B): ModuleDict(
                  (default): Linear(in_features=64, out_features=1024, bias=False)
                )
                (lora_embedding_A): ParameterDict()
                (lora_embedding_B): ParameterDict()
                (lora_magnitude_vector): ModuleDict()
              )
              (v_proj): lora.Linear4bit(
                (base_layer): Linear4bit(in_features=4096, out_features=1024, bias=False)
                (lora_dropout): ModuleDict(
                  (default): Identity()
                )
                (lora_A): ModuleDict(
                  (default): Linear(in_features=4096, out_features=64, bias=False)
                )
                (lora_B): ModuleDict(
                  (default): Linear(in_features=64, out_features=1024, bias=False)
                )
                (lora_embedding_A): ParameterDict()
                (lora_embedding_B): ParameterDict()
                (lora_magnitude_vector): ModuleDict()
              )
              (o_proj): lora.Linear4bit(
                (base_layer): Linear4bit(in_features=4096, out_features=4096, bias=False)
                (lora_dropout): ModuleDict(
                  (default): Identity()
                )
                (lora_A): ModuleDict(
                  (default): Linear(in_features=4096, out_features=64, bias=False)
                )
                (lora_B): ModuleDict(
                  (default): Linear(in_features=64, out_features=4096, bias=False)
                )
                (lora_embedding_A): ParameterDict()
                (lora_embedding_B): ParameterDict()
                (lora_magnitude_vector): ModuleDict()
              )
            )
            (mlp): LlamaMLP(
              (gate_proj): lora.Linear4bit(
                (base_layer): Linear4bit(in_features=4096, out_features=14336, bias=False)
                (lora_dropout): ModuleDict(
                  (default): Identity()
                )
                (lora_A): ModuleDict(
                  (default): Linear(in_features=4096, out_features=64, bias=False)
                )
                (lora_B): ModuleDict(
                  (default): Linear(in_features=64, out_features=14336, bias=False)
                )
                (lora_embedding_A): ParameterDict()
                (lora_embedding_B): ParameterDict()
                (lora_magnitude_vector): ModuleDict()
              )
              (up_proj): lora.Linear4bit(
                (base_layer): Linear4bit(in_features=4096, out_features=14336, bias=False)
                (lora_dropout): ModuleDict(
                  (default): Identity()
                )
                (lora_A): ModuleDict(
                  (default): Linear(in_features=4096, out_features=64, bias=False)
                )
                (lora_B): ModuleDict(
                  (default): Linear(in_features=64, out_features=14336, bias=False)
                )
                (lora_embedding_A): ParameterDict()
                (lora_embedding_B): ParameterDict()
                (lora_magnitude_vector): ModuleDict()
              )
              (down_proj): lora.Linear4bit(
                (base_layer): Linear4bit(in_features=14336, out_features=4096, bias=False)
                (lora_dropout): ModuleDict(
                  (default): Identity()
                )
                (lora_A): ModuleDict(
                  (default): Linear(in_features=14336, out_features=64, bias=False)
                )
                (lora_B): ModuleDict(
                  (default): Linear(in_features=64, out_features=4096, bias=False)
                )
                (lora_embedding_A): ParameterDict()
                (lora_embedding_B): ParameterDict()
                (lora_magnitude_vector): ModuleDict()
              )
              (act_fn): SiLU()
            )
            (input_layernorm): LlamaRMSNorm((4096,), eps=1e-05)
            (post_attention_layernorm): LlamaRMSNorm((4096,), eps=1e-05)
          )
        )
        (norm): LlamaRMSNorm((4096,), eps=1e-05)
        (rotary_emb): LlamaRotaryEmbedding()
      )
      (lm_head): Linear(in_features=4096, out_features=128256, bias=False)
    )
  )
)

[0;31m---------------------------------------------------------------------------[0m
[0;31mNameError[0m                                 Traceback (most recent call last)
Cell [0;32mIn[31], line 1[0m
[0;32m----> 1[0m [43mmdoel[49m[38;5;241m.[39mrotary_emb

[0;31mNameError[0m: name 'mdoel' is not defined

[0;31m---------------------------------------------------------------------------[0m
…
[0;32m-> 1709[0m [38;5;28;01mraise[39;00m [38;5;167;01mAttributeError[39;00m([38;5;124mf[39m[38;5;124m"[39m[38;5;124m'[39m[38;5;132;01m{[39;00m[38;5;28mtype[39m([38;5;28mself[39m)[38;5;241m.[39m[38;5;18m__name__[39m[38;5;132;01m}[39;00m[38;5;124m'[39m[38;5;124m object has no attribute [39m[38;5;124m'[39m[38;5;132;01m{[39;00mname[38;5;132;01m}[39;00m[38;5;124m'[39m[38;5;124m"[39m)

[0;31mAttributeError[0m: 'LlamaForCausalLM' object has no attribute 'rotary_emb'

<generator object Module.modules at 0x7a3586d75ee0>

<generator object Module.modules at 0x7a350c1db060>


[PeftModelForCausalLM(
   (base_model): LoraModel(
     (model): LlamaForCausalLM(
       (model): LlamaModel(
         (embed_tokens): Embedding(128256, 4096, padding_idx=128004)
         (layers): ModuleList(
           (0-31): 32 x LlamaDecoderLayer(
             (self_attn): LlamaAttention(
               (q_proj): lora.Linear4bit(
                 (base_layer): Linear4bit(in_features=4096, out_features=4096, bias=False)
                 (lora_dropout): ModuleDict(
                   (default): Identity()
                 )
                 (lora_A): ModuleDict(
                   (default): Linear(in_features=4096, out_features=64, bias=False)
                 )
                 (lora_B): ModuleDict(
                   (default): Linear(in_features=64, out_features=4096, bias=False)
                 )
                 (lora_embedding_A): ParameterDict()
                 (lora_embedding_B): ParameterDict()
                 (lora_magnitude_vector): ModuleDict()
               )
               (k_proj): lora.Linear4bit(
                 (base_layer): Linear4bit(in_features=4096, out_features=1024, bias=False)
                 (lora_dropout): ModuleDict(
                   (default): Identity()
                 )
                 (lora_A): ModuleDict(
                   (default): Linear(in_features=4096, out_features=64, bias=False)
                 )
                 (lora_B): ModuleDict(
                   (default): Linear(in_features=64, out_features=1024, bias=False)
                 )
                 (lora_embedding_A): ParameterDict()
                 (lora_embedding_B): ParameterDict()
                 (lora_magnitude_vector): ModuleDict()
               )
               (v_proj): lora.Linear4bit(
                 (base_layer): Linear4bit(in_features=4096, out_features=1024, bias=False)
                 (lora_dropout): ModuleDict(
                   (default): Identity()
                 )
                 (lora_A): ModuleDict(
                   (default): Linear(in_features=4096, out_features=64, bias=False)
                 )
                 (lora_B): ModuleDict(
                   (default): Linear(in_features=64, out_features=1024, bias=False)
                 )
                 (lora_embedding_A): ParameterDict()
                 (lora_embedding_B): ParameterDict()
                 (lora_magnitude_vector): ModuleDict()
               )
               (o_proj): lora.Linear4bit(
                 (base_layer): Linear4bit(in_features=4096, out_features=4096, bias=False)
                 (lora_dropout): ModuleDict(
                   (default): Identity()
                 )
                 (lora_A): ModuleDict(
                   (default): Linear(in_features=4096, out_features=64, bias=False)
                 )
                 (lora_B): ModuleDict(
                   (default): Linear(in_features=64, out_features=4096, bias=False)
                 )
                 (lora_embedding_A): ParameterDict()
                 (lora_embedding_B): ParameterDict()
                 (lora_magnitude_vector): ModuleDict()
               )
             )
             (mlp): LlamaMLP(
               (gate_proj): lora.Linear4bit(
                 (base_layer): Linear4bit(in_features=4096, out_features=14336, bias=False)
                 (lora_dropout): ModuleDict(
                   (default): Identity()
                 )
                 (lora_A): ModuleDict(
                   (default): Linear(in_features=4096, out_features=64, bias=False)
                 )
                 (lora_B): ModuleDict(
                   (default): Linear(in_features=64, out_features=14336, bias=False)
                 )
                 (lora_embedding_A): ParameterDict()
                 (lora_embedding_B): ParameterDict()
                 (lora_magnitude_vector): ModuleDict()
               )
               (up_proj): lora.Linear4bit(
                 (base_layer): Linear4bit(in_features=4096, out_features=14336, bias=False)
                 (lora_dropout): ModuleDict(
                   (default): Identity()
                 )
                 (lora_A): ModuleDict(
                   (default): Linear(in_features=4096, out_features=64, bias=False)
                 )
                 (lora_B): ModuleDict(
                   (default): Linear(in_features=64, out_features=14336, bias=False)
                 )
                 (lora_embedding_A): ParameterDict()
                 (lora_embedding_B): ParameterDict()
                 (lora_magnitude_vector): ModuleDict()
               )
               (down_proj): lora.Linear4bit(
                 (base_layer): Linear4bit(in_features=14336, out_features=4096, bias=False)
                 (lora_dropout): ModuleDict(
                   (default): Identity()
                 )
                 (lora_A): ModuleDict(
                   (default): Linear(in_features=14336, out_features=64, bias=False)
                 )
                 (lora_B): ModuleDict(
                   (default): Linear(in_features=64, out_features=4096, bias=False)
                 )
                 (lora_embedding_A): ParameterDict()
                 (lora_embedding_B): ParameterDict()
                 (lora_magnitude_vector): ModuleDict()
               )
               (act_fn): SiLU()
             )
             (input_layernorm): LlamaRMSNorm((4096,), eps=1e-05)
             (post_attention_layernorm): LlamaRMSNorm((4096,), eps=1e-05)
           )
         )
         (norm): LlamaRMSNorm((4096,), eps=1e-05)
         (rotary_emb): LlamaRotaryEmbedding()
       )
       (lm_head): Linear(in_features=4096, out_features=128256, bias=False)
     )
   )
 ),
 LoraModel(
   (model): LlamaForCausalLM(
     (model): LlamaModel(
       (embed_tokens): Embedding(128256, 4096, padding_idx=128004)
       (layers): ModuleList(
         (0-31): 32 x LlamaDecoderLayer(
           (self_attn): LlamaAttention(
             (q_proj): lora.Linear4bit(
               (base_layer): Linear4bit(in_features=4096, out_features=4096, bias=False)
               (lora_dropout): ModuleDict(
                 (default): Identity()
               )
               (lora_A): ModuleDict(
                 (default): Linear(in_features=4096, out_features=64, bias=False)
               )
               (lora_B): ModuleDict(
                 (default): Linear(in_features=64, out_features=4096, bias=False)
               )
               (lora_embedding_A): ParameterDict()
               (lora_embedding_B): ParameterDict()
               (lora_magnitude_vector): ModuleDict()
             )
             (k_proj): lora.Linear4bit(
               (base_layer): Linear4bit(in_features=4096, out_features=1024, bias=False)
               (lora_dropout): ModuleDict(
                 (default): Identity()
               )
               (lora_A): ModuleDict(
                 (default): Linear(in_features=4096, out_features=64, bias=False)
               )
               (lora_B): ModuleDict(
                 (default): Linear(in_features=64, out_features=1024, bias=False)
               )
               (lora_embedding_A): ParameterDict()
               (lora_embedding_B): ParameterDict()
               (lora_magnitude_vector): ModuleDict()
             )
             (v_proj): lora.Linear4bit(
               (base_layer): Linear4bit(in_features=4096, out_features=1024, bias=False)
               (lora_dropout): ModuleDict(
                 (default): Identity()
               )
               (lora_A): ModuleDict(
                 (default): Linear(in_features=4096, out_features=64, bias=False)
               )
               (lora_B): ModuleDict(
                 (default): Linear(in_features=64, out_features=1024, bias=False)
               )
               (lora_embedding_A): ParameterDict()
               (lora_embedding_B): ParameterDict()
               (lora_magnitude_vector): ModuleDict()
             )
             (o_proj): lora.Linear4bit(
               (base_layer): Linear4bit(in_features=4096, out_features=4096, bias=False)
               (lora_dropout): ModuleDict(
                 (default): Identity()
               )
               (lora_A): ModuleDict(
                 (default): Linear(in_features=4096, out_features=64, bias=False)
               )
               (lora_B): ModuleDict(
                 (default): Linear(in_features=64, out_features=4096, bias=False)
               )
               (lora_embedding_A): ParameterDict()
               (lora_embedding_B): ParameterDict()
               (lora_magnitude_vector): ModuleDict()
             )
           )
           (mlp): LlamaMLP(
             (gate_proj): lora.Linear4bit(
               (base_layer): Linear4bit(in_features=4096, out_features=14336, bias=False)
               (lora_dropout): ModuleDict(
                 (default): Identity()
               )
               (lora_A): ModuleDict(
                 (default): Linear(in_features=4096, out_features=64, bias=False)
               )
               (lora_B): ModuleDict(
                 (default): Linear(in_features=64, out_features=14336, bias=False)
               )
               (lora_embedding_A): ParameterDict()
               (lora_embedding_B): ParameterDict()
               (lora_magnitude_vector): ModuleDict()
             )
             (up_proj): lora.Linear4bit(
               (base_layer): Linear4bit(in_features=4096, out_features=14336, bias=False)
               (lora_dropout): ModuleDict(
                 (default): Identity()
               )
               (lora_A): ModuleDict(
                 (default): Linear(in_features=4096, out_features=64, bias=False)
               )
               (lora_B): ModuleDict(
                 (default): Linear(in_features=64, out_features=14336, bias=False)
               )
               (lora_embedding_A): ParameterDict()
               (lora_embedding_B): ParameterDict()
               (lora_magnitude_vector): ModuleDict()
             )
             (down_proj): lora.Linear4bit(
               (base_layer): Linear4bit(in_features=14336, out_features=4096, bias=False)
               (lora_dropout): ModuleDict(
                 (default): Identity()
               )
               (lora_A): ModuleDict(
                 (default): Linear(in_features=14336, out_features=64, bias=False)
               )
               (lora_B): ModuleDict(
                 (default): Linear(in_features=64, out_features=4096, bias=False)
               )
               (lora_embedding_A): ParameterDict()
               (lora_embedding_B): ParameterDict()
               (lora_magnitude_vector): ModuleDict()
             )
             (act_fn): SiLU()
           )
           (input_layernorm): LlamaRMSNorm((4096,), eps=1e-05)
           (post_attention_layernorm): LlamaRMSNorm((4096,), eps=1e-05)
         )
       )
       (norm): LlamaRMSNorm((4096,), eps=1e-05)
       (rotary_emb): LlamaRotaryEmbedding()
     )
     (lm_head): Linear(in_features=4096, out_features=128256, bias=False)
   )
 ),
 LlamaForCausalLM(
   (model): LlamaModel(
     (embed_tokens): Embedding(128256, 4096, padding_idx=128004)
     (layers): ModuleList(
       (0-31): 32 x LlamaDecoderLayer(
         (self_attn): LlamaAttention(
           (q_proj): lora.Linear4bit(
             (base_layer): Linear4bit(in_features=4096, out_features=4096, bias=False)
             (lora_dropout): ModuleDict(
               (default): Identity()
             )
             (lora_A): ModuleDict(
               (default): Linear(in_features=4096, out_features=64, bias=False)
             )
             (lora_B): ModuleDict(
               (default): Linear(in_features=64, out_features=4096, bias=False)
             )
             (lora_embedding_A): ParameterDict()
             (lora_embedding_B): ParameterDict()
             (lora_magnitude_vector): ModuleDict()
           )
           (k_proj): lora.Linear4bit(
             (base_layer): Linear4bit(in_features=4096, out_features=1024, bias=False)
             (lora_dropout): ModuleDict(
               (default): Identity()
             )
             (lora_A): ModuleDict(
               (default): Linear(in_features=4096, out_features=64, bias=False)
             )
             (lora_B): ModuleDict(
               (default): Linear(in_features=64, out_features=1024, bias=False)
             )
             (lora_embedding_A): ParameterDict()
             (lora_embedding_B): ParameterDict()
             (lora_magnitude_vector): ModuleDict()
           )
           (v_proj): lora.Linear4bit(
             (base_layer): Linear4bit(in_features=4096, out_features=1024, bias=False)
             (lora_dropout): ModuleDict(
               (default): Identity()
             )
             (lora_A): ModuleDict(
               (default): Linear(in_features=4096, out_features=64, bias=False)
             )
             (lora_B): ModuleDict(
               (default): Linear(in_features=64, out_features=1024, bias=False)
             )
             (lora_embedding_A): ParameterDict()
             (lora_embedding_B): ParameterDict()
             (lora_magnitude_vector): ModuleDict()
           )
           (o_proj): lora.Linear4bit(
             (base_layer): Linear4bit(in_features=4096, out_features=4096, bias=False)
             (lora_dropout): ModuleDict(
               (default): Identity()
             )
             (lora_A): ModuleDict(
               (default): Linear(in_features=4096, out_features=64, bias=False)
             )
             (lora_B): ModuleDict(
               (default): Linear(in_features=64, out_features=4096, bias=False)
             )
             (lora_embedding_A): ParameterDict()
             (lora_embedding_B): ParameterDict()
             (lora_magnitude_vector): ModuleDict()
           )
         )
         (mlp): LlamaMLP(
           (gate_proj): lora.Linear4bit(
             (base_layer): Linear4bit(in_features=4096, out_features=14336, bias=False)
             (lora_dropout): ModuleDict(
               (default): Identity()
             )
             (lora_A): ModuleDict(
               (default): Linear(in_features=4096, out_features=64, bias=False)
             )
             (lora_B): ModuleDict(
               (default): Linear(in_features=64, out_features=14336, bias=False)
             )
             (lora_embedding_A): ParameterDict()
             (lora_embedding_B): ParameterDict()
             (lora_magnitude_vector): ModuleDict()
           )
           (up_proj): lora.Linear4bit(
             (base_layer): Linear4bit(in_features=4096, out_features=14336, bias=False)
             (lora_dropout): ModuleDict(
               (default): Identity()
             )
             (lora_A): ModuleDict(
               (default): Linear(in_features=4096, out_features=64, bias=False)
             )
             (lora_B): ModuleDict(
               (default): Linear(in_features=64, out_features=14336, bias=False)
             )
             (lora_embedding_A): ParameterDict()
             (lora_embedding_B): ParameterDict()
             (lora_magnitude_vector): ModuleDict()
           )
           (down_proj): lora.Linear4bit(
             (base_layer): Linear4bit(in_features=14336, out_features=4096, bias=False)
             (lora_dropout): ModuleDict(
               (default): Identity()
             )
             (lora_A): ModuleDict(
               (default): Linear(in_features=14336, out_features=64, bias=False)
             )
             (lora_B): ModuleDict(
               (default): Linear(in_features=64, out_features=4096, bias=False)
             )
             (lora_embedding_A): ParameterDict()
             (lora_embedding_B): ParameterDict()
             (lora_magnitude_vector): ModuleDict()
           )
           (act_fn): SiLU()
         )
         (input_layernorm): LlamaRMSNorm((4096,), eps=1e-05)
         (post_attention_layernorm): LlamaRMSNorm((4096,), eps=1e-05)
       )
     )
     (norm): LlamaRMSNorm((4096,), eps=1e-05)
     (rotary_emb): LlamaRotaryEmbedding()
   )
   (lm_head): Linear(in_features=4096, out_features=128256, bias=False)
 ),
 LlamaModel(
   (embed_tokens): Embedding(128256, 4096, padding_idx=128004)
   (layers): ModuleList(
     (0-31): 32 x LlamaDecoderLayer(
       (self_attn): LlamaAttention(
         (q_proj): lora.Linear4bit(
           (base_layer): Linear4bit(in_features=4096, out_features=4096, bias=False)
           (lora_dropout): ModuleDict(
             (default): Identity()
           )
           (lora_A): ModuleDict(
             (default): Linear(in_features=4096, out_features=64, bias=False)
           )
           (lora_B): ModuleDict(
             (default): Linear(in_features=64, out_features=4096, bias=False)
           )
           (lora_embedding_A): ParameterDict()
           (lora_embedding_B): ParameterDict()
           (lora_magnitude_vector): ModuleDict()
         )
         (k_proj): lora.Linear4bit(
           (base_layer): Linear4bit(in_features=4096, out_features=1024, bias=False)
           (lora_dropout): ModuleDict(
             (default): Identity()
           )
           (lora_A): ModuleDict(
             (default): Linear(in_features=4096, out_features=64, bias=False)
           )
           (lora_B): ModuleDict(
             (default): Linear(in_features=64, out_features=1024, bias=False)
           )
           (lora_embedding_A): ParameterDict()
           (lora_embedding_B): ParameterDict()
           (lora_magnitude_vector): ModuleDict()
         )
         (v_proj): lora.Linear4bit(
           (base_layer): Linear4bit(in_features=4096, out_features=1024, bias=False)
           (lora_dropout): ModuleDict(
             (default): Identity()
           )
           (lora_A): ModuleDict(
             (default): Linear(in_features=4096, out_features=64, bias=False)
           )
           (lora_B): ModuleDict(
             (default): Linear(in_features=64, out_features=1024, bias=False)
           )
           (lora_embedding_A): ParameterDict()
           (lora_embedding_B): ParameterDict()
           (lora_magnitude_vector): ModuleDict()
         )
         (o_proj): lora.Linear4bit(
           (base_layer): Linear4bit(in_features=4096, out_features=4096, bias=False)
           (lora_dropout): ModuleDict(
             (default): Identity()
           )
           (lora_A): ModuleDict(
             (default): Linear(in_features=4096, out_features=64, bias=False)
           )
           (lora_B): ModuleDict(
             (default): Linear(in_features=64, out_features=4096, bias=False)
           )
           (lora_embedding_A): ParameterDict()
           (lora_embedding_B): ParameterDict()
           (lora_magnitude_vector): ModuleDict()
         )
       )
       (mlp): LlamaMLP(
         (gate_proj): lora.Linear4bit(
           (base_layer): Linear4bit(in_features=4096, out_features=14336, bias=False)
           (lora_dropout): ModuleDict(
             (default): Identity()
           )
           (lora_A): ModuleDict(
             (default): Linear(in_features=4096, out_features=64, bias=False)
           )
           (lora_B): ModuleDict(
             (default): Linear(in_features=64, out_features=14336, bias=False)
           )
           (lora_embedding_A): ParameterDict()
           (lora_embedding_B): ParameterDict()
           (lora_magnitude_vector): ModuleDict()
         )
         (up_proj): lora.Linear4bit(
           (base_layer): Linear4bit(in_features=4096, out_features=14336, bias=False)
           (lora_dropout): ModuleDict(
             (default): Identity()
           )
           (lora_A): ModuleDict(
             (default): Linear(in_features=4096, out_features=64, bias=False)
           )
           (lora_B): ModuleDict(
             (default): Linear(in_features=64, out_features=14336, bias=False)
           )
           (lora_embedding_A): ParameterDict()
           (lora_embedding_B): ParameterDict()
           (lora_magnitude_vector): ModuleDict()
         )
         (down_proj): lora.Linear4bit(
           (base_layer): Linear4bit(in_features=14336, out_features=4096, bias=False)
           (lora_dropout): ModuleDict(
             (default): Identity()
           )
           (lora_A): ModuleDict(
             (default): Linear(in_features=14336, out_features=64, bias=False)
           )
           (lora_B): ModuleDict(
             (default): Linear(in_features=64, out_features=4096, bias=False)
           )
           (lora_embedding_A): ParameterDict()
           (lora_embedding_B): ParameterDict()
           (lora_magnitude_vector): ModuleDict()
         )
         (act_fn): SiLU()
       )
       (input_layernorm): LlamaRMSNorm((4096,), eps=1e-05)
       (post_attention_layernorm): LlamaRMSNorm((4096,), eps=1e-05)
     )
   )
   (norm): LlamaRMSNorm((4096,), eps=1e-05)
   (rotary_emb): LlamaRotaryEmbedding()
 ),
 Embedding(128256, 4096, padding_idx=128004),
 ModuleList(
   (0-31): 32 x LlamaDecoderLayer(
     (self_attn): LlamaAttention(
       (q_proj): lora.Linear4bit(
         (base_layer): Linear4bit(in_features=4096, out_features=4096, bias=False)
         (lora_dropout): ModuleDict(
           (default): Identity()
         )
         (lora_A): ModuleDict(
           (default): Linear(in_features=4096, out_features=64, bias=False)
         )
         (lora_B): ModuleDict(
           (default): Linear(in_features=64, out_features=4096, bias=False)
         )
         (lora_embedding_A): ParameterDict()
         (lora_embedding_B): ParameterDict()
         (lora_magnitude_vector): ModuleDict()
       )
       (k_proj): lora.Linear4bit(
         (base_layer): Linear4bit(in_features=4096, out_features=1024, bias=False)
         (lora_dropout): ModuleDict(
           (default): Identity()
         )
         (lora_A): ModuleDict(
           (default): Linear(in_features=4096, out_features=64, bias=False)
         )
         (lora_B): ModuleDict(
           (default): Linear(in_features=64, out_features=1024, bias=False)
         )
         (lora_embedding_A): ParameterDict()
         (lora_embedding_B): ParameterDict()
         (lora_magnitude_vector): ModuleDict()
       )
       (v_proj): lora.Linear4bit(
         (base_layer): Linear4bit(in_features=4096, out_features=1024, bias=False)
         (lora_dropout): ModuleDict(
           (default): Identity()
         )
         (lora_A): ModuleDict(
           (default): Linear(in_features=4096, out_features=64, bias=False)
         )
         (lora_B): ModuleDict(
           (default): Linear(in_features=64, out_features=1024, bias=False)
         )
         (lora_embedding_A): ParameterDict()
         (lora_embedding_B): ParameterDict()
         (lora_magnitude_vector): ModuleDict()
       )
       (o_proj): lora.Linear4bit(
         (base_layer): Linear4bit(in_features=4096, out_features=4096, bias=False)
         (lora_dropout): ModuleDict(
           (default): Identity()
         )
         (lora_A): ModuleDict(
           (default): Linear(in_features=4096, out_features=64, bias=False)
         )
         (lora_B): ModuleDict(
           (default): Linear(in_features=64, out_features=4096, bias=False)
         )
         (lora_embedding_A): ParameterDict()
         (lora_embedding_B): ParameterDict()
         (lora_magnitude_vector): ModuleDict()
       )
     )
     (mlp): LlamaMLP(
       (gate_proj): lora.Linear4bit(
         (base_layer): Linear4bit(in_features=4096, out_features=14336, bias=False)
         (lora_dropout): ModuleDict(
           (default): Identity()
         )
         (lora_A): ModuleDict(
           (default): Linear(in_features=4096, out_features=64, bias=False)
         )
         (lora_B): ModuleDict(
           (default): Linear(in_features=64, out_features=14336, bias=False)
         )
         (lora_embedding_A): ParameterDict()
         (lora_embedding_B): ParameterDict()
         (lora_magnitude_vector): ModuleDict()
       )
       (up_proj): lora.Linear4bit(
         (base_layer): Linear4bit(in_features=4096, out_features=14336, bias=False)
         (lora_dropout): ModuleDict(
           (default): Identity()
         )
         (lora_A): ModuleDict(
           (default): Linear(in_features=4096, out_features=64, bias=False)
         )
         (lora_B): ModuleDict(
           (default): Linear(in_features=64, out_features=14336, bias=False)
         )
         (lora_embedding_A): ParameterDict()
         (lora_embedding_B): ParameterDict()
         (lora_magnitude_vector): ModuleDict()
       )
       (down_proj): lora.Linear4bit(
         (base_layer): Linear4bit(in_features=14336, out_features=4096, bias=False)
         (lora_dropout): ModuleDict(
           (default): Identity()
         )
         (lora_A): ModuleDict(
           (default): Linear(in_features=14336, out_features=64, bias=False)
         )
         (lora_B): ModuleDict(
           (default): Linear(in_features=64, out_features=4096, bias=False)
         )
         (lora_embedding_A): ParameterDict()
         (lora_embedding_B): ParameterDict()
         (lora_magnitude_vector): ModuleDict()
       )
       (act_fn): SiLU()
     )
     (input_layernorm): LlamaRMSNorm((4096,), eps=1e-05)
     (post_attention_layernorm): LlamaRMSNorm((4096,), eps=1e-05)
   )
 ),
 LlamaDecoderLayer(
   (self_attn): LlamaAttention(
     (q_proj): lora.Linear4bit(
       (base_layer): Linear4bit(in_features=4096, out_features=4096, bias=False)
       (lora_dropout): ModuleDict(
         (default): Identity()
       )
       (lora_A): ModuleDict(
         (default): Linear(in_features=4096, out_features=64, bias=False)
       )
       (lora_B): ModuleDict(
         (default): Linear(in_features=64, out_features=4096, bias=False)
       )
       (lora_embedding_A): ParameterDict()
       (lora_embedding_B): ParameterDict()
       (lora_magnitude_vector): ModuleDict()
     )
     (k_proj): lora.Linear4bit(
       (base_layer): Linear4bit(in_features=4096, out_features=1024, bias=False)
       (lora_dropout): ModuleDict(
         (default): Identity()
       )
       (lora_A): ModuleDict(
         (default): Linear(in_features=4096, out_features=64, bias=False)
       )
       (lora_B): ModuleDict(
         (default): Linear(in_features=64, out_features=1024, bias=False)
       )
       (lora_embedding_A): ParameterDict()
       (lora_embedding_B): ParameterDict()
       (lora_magnitude_vector): ModuleDict()
     )
     (v_proj): lora.Linear4bit(
       (base_layer): Linear4bit(in_features=4096, out_features=1024, bias=False)
       (lora_dropout): ModuleDict(
         (default): Identity()
       )
       (lora_A): ModuleDict(
         (default): Linear(in_features=4096, out_features=64, bias=False)
       )
       (lora_B): ModuleDict(
         (default): Linear(in_features=64, out_features=1024, bias=False)
       )
       (lora_embedding_A): ParameterDict()
       (lora_embedding_B): ParameterDict()
       (lora_magnitude_vector): ModuleDict()
     )
     (o_proj): lora.Linear4bit(
       (base_layer): Linear4bit(in_features=4096, out_features=4096, bias=False)
       (lora_dropout): ModuleDict(
         (default): Identity()
       )
       (lora_A): ModuleDict(
         (default): Linear(in_features=4096, out_features=64, bias=False)
       )
       (lora_B): ModuleDict(
         (default): Linear(in_features=64, out_features=4096, bias=False)
       )
       (lora_embedding_A): ParameterDict()
       (lora_embedding_B): ParameterDict()
       (lora_magnitude_vector): ModuleDict()
     )
   )
   (mlp): LlamaMLP(
     (gate_proj): lora.Linear4bit(
       (base_layer): Linear4bit(in_features=4096, out_features=14336, bias=False)
       (lora_dropout): ModuleDict(
         (default): Identity()
       )
       (lora_A): ModuleDict(
         (default): Linear(in_features=4096, out_features=64, bias=False)
       )
       (lora_B): ModuleDict(
         (default): Linear(in_features=64, out_features=14336, bias=False)
       )
       (lora_embedding_A): ParameterDict()
       (lora_embedding_B): ParameterDict()
       (lora_magnitude_vector): ModuleDict()
     )
     (up_proj): lora.Linear4bit(
       (base_layer): Linear4bit(in_features=4096, out_features=14336, bias=False)
       (lora_dropout): ModuleDict(
         (default): Identity()
       )
       (lora_A): ModuleDict(
         (default): Linear(in_features=4096, out_features=64, bias=False)
       )
       (lora_B): ModuleDict(
         (default): Linear(in_features=64, out_features=14336, bias=False)
       )
       (lora_embedding_A): ParameterDict()
       (lora_embedding_B): ParameterDict()
       (lora_magnitude_vector): ModuleDict()
     )
     (down_proj): lora.Linear4bit(
       (base_layer): Linear4bit(in_features=14336, out_features=4096, bias=False)
       (lora_dropout): ModuleDict(
         (default): Identity()
       )
       (lora_A): ModuleDict(
         (default): Linear(in_features=14336, out_features=64, bias=False)
       )
       (lora_B): ModuleDict(
         (default): Linear(in_features=64, out_features=4096, bias=False)
       )
       (lora_embedding_A): ParameterDict()
       (lora_embedding_B): ParameterDict()
       (lora_magnitude_vector): ModuleDict()
     )
     (act_fn): SiLU()
   )
   (input_layernorm): LlamaRMSNorm((4096,), eps=1e-05)
   (post_attention_layernorm): LlamaRMSNorm((4096,), eps=1e-05)
 ),
 LlamaAttention(
   (q_proj): lora.Linear4bit(
     (base_layer): Linear4bit(in_features=4096, out_features=4096, bias=False)
     (lora_dropout): ModuleDict(
       (default): Identity()
     )
     (lora_A): ModuleDict(
       (default): Linear(in_features=4096, out_features=64, bias=False)
     )
     (lora_B): ModuleDict(
       (default): Linear(in_features=64, out_features=4096, bias=False)
     )
     (lora_embedding_A): ParameterDict()
     (lora_embedding_B): ParameterDict()
     (lora_magnitude_vector): ModuleDict()
   )
   (k_proj): lora.Linear4bit(
     (base_layer): Linear4bit(in_features=4096, out_features=1024, bias=False)
     (lora_dropout): ModuleDict(
       (default): Identity()
     )
     (lora_A): ModuleDict(
       (default): Linear(in_features=4096, out_features=64, bias=False)
     )
     (lora_B): ModuleDict(
       (default): Linear(in_features=64, out_features=1024, bias=False)
     )
     (lora_embedding_A): ParameterDict()
     (lora_embedding_B): ParameterDict()
     (lora_magnitude_vector): ModuleDict()
   )
   (v_proj): lora.Linear4bit(
     (base_layer): Linear4bit(in_features=4096, out_features=1024, bias=False)
     (lora_dropout): ModuleDict(
       (default): Identity()
     )
     (lora_A): ModuleDict(
       (default): Linear(in_features=4096, out_features=64, bias=False)
     )
     (lora_B): ModuleDict(
       (default): Linear(in_features=64, out_features=1024, bias=False)
     )
     (lora_embedding_A): ParameterDict()
     (lora_embedding_B): ParameterDict()
     (lora_magnitude_vector): ModuleDict()
   )
   (o_proj): lora.Linear4bit(
     (base_layer): Linear4bit(in_features=4096, out_features=4096, bias=False)
     (lora_dropout): ModuleDict(
       (default): Identity()
     )
     (lora_A): ModuleDict(
       (default): Linear(in_features=4096, out_features=64, bias=False)
     )
     (lora_B): ModuleDict(
       (default): Linear(in_features=64, out_features=4096, bias=False)
     )
     (lora_embedding_A): ParameterDict()
     (lora_embedding_B): ParameterDict()
     (lora_magnitude_vector): ModuleDict()
   )
 ),
 lora.Linear4bit(
   (base_layer): Linear4bit(in_features=4096, out_features=4096, bias=False)
   (lora_dropout): ModuleDict(
     (default): Identity()
   )
   (lora_A): ModuleDict(
     (default): Linear(in_features=4096, out_features=64, bias=False)
   )
   (lora_B): ModuleDict(
     (default): Linear(in_features=64, out_features=4096, bias=False)
   )
   (lora_embedding_A): ParameterDict()
   (lora_embedding_B): ParameterDict()
   (lora_magnitude_vector): ModuleDict()
 ),
 Linear4bit(in_features=4096, out_features=4096, bias=False),
 ModuleDict(
   (default): Identity()
 ),
 Identity(),
 ModuleDict(
   (default): Linear(in_features=4096, out_features=64, bias=False)
 ),
 Linear(in_features=4096, out_features=64, bias=False),
 ModuleDict(
   (default): Linear(in_features=64, out_features=4096, bias=False)
 ),
 Linear(in_features=64, out_features=4096, bias=False),
 ParameterDict(),
 ParameterDict(),
 ModuleDict(),
 lora.Linear4bit(
   (base_layer): Linear4bit(in_features=4096, out_features=1024, bias=False)
   (lora_dropout): ModuleDict(
     (default): Identity()
   )
   (lora_A): ModuleDict(
     (default): Linear(in_features=4096, out_features=64, bias=False)
   )
   (lora_B): ModuleDict(
     (default): Linear(in_features=64, out_features=1024, bias=False)
   )
   (lora_embedding_A): ParameterDict()
   (lora_embedding_B): ParameterDict()
   (lora_magnitude_vector): ModuleDict()
 ),
 Linear4bit(in_features=4096, out_features=1024, bias=False),
 ModuleDict(
   (default): Identity()
 ),
 Identity(),
 ModuleDict(
   (default): Linear(in_features=4096, out_features=64, bias=False)
 ),
 Linear(in_features=4096, out_features=64, bias=False),
 ModuleDict(
   (default): Linear(in_features=64, out_features=1024, bias=False)
 ),
 Linear(in_features=64, out_features=1024, bias=False),
 ParameterDict(),
 ParameterDict(),
 ModuleDict(),
 lora.Linear4bit(
   (base_layer): Linear4bit(in_features=4096, out_features=1024, bias=False)
   (lora_dropout): ModuleDict(
     (default): Identity()
   )
   (lora_A): ModuleDict(
     (default): Linear(in_features=4096, out_features=64, bias=False)
   )
   (lora_B): ModuleDict(
     (default): Linear(in_features=64, out_features=1024, bias=False)
   )
   (lora_embedding_A): ParameterDict()
   (lora_embedding_B): ParameterDict()
   (lora_magnitude_vector): ModuleDict()
 ),
 Linear4bit(in_features=4096, out_features=1024, bias=False),
 ModuleDict(
   (default): Identity()
 ),
 Identity(),
 ModuleDict(
   (default): Linear(in_features=4096, out_features=64, bias=False)
 ),
 Linear(in_features=4096, out_features=64, bias=False),
 ModuleDict(
   (default): Linear(in_features=64, out_features=1024, bias=False)
 ),
 Linear(in_features=64, out_features=1024, bias=False),
 ParameterDict(),
 ParameterDict(),
 ModuleDict(),
 lora.Linear4bit(
   (base_layer): Linear4bit(in_features=4096, out_features=4096, bias=False)
   (lora_dropout): ModuleDict(
     (default): Identity()
   )
   (lora_A): ModuleDict(
     (default): Linear(in_features=4096, out_features=64, bias=False)
   )
   (lora_B): ModuleDict(
     (default): Linear(in_features=64, out_features=4096, bias=False)
   )
   (lora_embedding_A): ParameterDict()
   (lora_embedding_B): ParameterDict()
   (lora_magnitude_vector): ModuleDict()
 ),
 Linear4bit(in_features=4096, out_features=4096, bias=False),
 ModuleDict(
   (default): Identity()
 ),
 Identity(),
 ModuleDict(
   (default): Linear(in_features=4096, out_features=64, bias=False)
 ),
 Linear(in_features=4096, out_features=64, bias=False),
 ModuleDict(
   (default): Linear(in_features=64, out_features=4096, bias=False)
 ),
 Linear(in_features=64, out_features=4096, bias=False),
 ParameterDict(),
 ParameterDict(),
 ModuleDict(),
 LlamaMLP(
   (gate_proj): lora.Linear4bit(
     (base_layer): Linear4bit(in_features=4096, out_features=14336, bias=False)
     (lora_dropout): ModuleDict(
       (default): Identity()
     )
     (lora_A): ModuleDict(
       (default): Linear(in_features=4096, out_features=64, bias=False)
     )
     (lora_B): ModuleDict(
       (default): Linear(in_features=64, out_features=14336, bias=False)
     )
     (lora_embedding_A): ParameterDict()
     (lora_embedding_B): ParameterDict()
     (lora_magnitude_vector): ModuleDict()
   )
   (up_proj): lora.Linear4bit(
     (base_layer): Linear4bit(in_features=4096, out_features=14336, bias=False)
     (lora_dropout): ModuleDict(
       (default): Identity()
     )
     (lora_A): ModuleDict(
       (default): Linear(in_features=4096, out_features=64, bias=False)
     )
     (lora_B): ModuleDict(
       (default): Linear(in_features=64, out_features=14336, bias=False)
     )
     (lora_embedding_A): ParameterDict()
     (lora_embedding_B): ParameterDict()
     (lora_magnitude_vector): ModuleDict()
   )
   (down_proj): lora.Linear4bit(
     (base_layer): Linear4bit(in_features=14336, out_features=4096, bias=False)
     (lora_dropout): ModuleDict(
       (default): Identity()
     )
     (lora_A): ModuleDict(
       (default): Linear(in_features=14336, out_features=64, bias=False)
     )
     (lora_B): ModuleDict(
       (default): Linear(in_features=64, out_features=4096, bias=False)
     )
     (lora_embedding_A): ParameterDict()
     (lora_embedding_B): ParameterDict()
     (lora_magnitude_vector): ModuleDict()
   )
   (act_fn): SiLU()
 ),
 lora.Linear4bit(
   (base_layer): Linear4bit(in_features=4096, out_features=14336, bias=False)
   (lora_dropout): ModuleDict(
     (default): Identity()
   )
   (lora_A): ModuleDict(
     (default): Linear(in_features=4096, out_features=64, bias=False)
   )
   (lora_B): ModuleDict(
     (default): Linear(in_features=64, out_features=14336, bias=False)
   )
   (lora_embedding_A): ParameterDict()
   (lora_embedding_B): ParameterDict()
   (lora_magnitude_vector): ModuleDict()
 ),
 Linear4bit(in_features=4096, out_features=14336, bias=False),
 ModuleDict(
   (default): Identity()
 ),
 Identity(),
 ModuleDict(
   (default): Linear(in_features=4096, out_features=64, bias=False)
 ),
 Linear(in_features=4096, out_features=64, bias=False),
 ModuleDict(
   (default): Linear(in_features=64, out_features=14336, bias=False)
 ),
 Linear(in_features=64, out_features=14336, bias=False),
 ParameterDict(),
 ParameterDict(),
 ModuleDict(),
 lora.Linear4bit(
   (base_layer): Linear4bit(in_features=4096, out_features=14336, bias=False)
   (lora_dropout): ModuleDict(
     (default): Identity()
   )
   (lora_A): ModuleDict(
     (default): Linear(in_features=4096, out_features=64, bias=False)
   )
   (lora_B): ModuleDict(
     (default): Linear(in_features=64, out_features=14336, bias=False)
   )
   (lora_embedding_A): ParameterDict()
   (lora_embedding_B): ParameterDict()
   (lora_magnitude_vector): ModuleDict()
 ),
 Linear4bit(in_features=4096, out_features=14336, bias=False),
 ModuleDict(
   (default): Identity()
 ),
 Identity(),
 ModuleDict(
   (default): Linear(in_features=4096, out_features=64, bias=False)
 ),
 Linear(in_features=4096, out_features=64, bias=False),
 ModuleDict(
   (default): Linear(in_features=64, out_features=14336, bias=False)
 ),
 Linear(in_features=64, out_features=14336, bias=False),
 ParameterDict(),
 ParameterDict(),
 ModuleDict(),
 lora.Linear4bit(
   (base_layer): Linear4bit(in_features=14336, out_features=4096, bias=False)
   (lora_dropout): ModuleDict(
     (default): Identity()
   )
   (lora_A): ModuleDict(
     (default): Linear(in_features=14336, out_features=64, bias=False)
   )
   (lora_B): ModuleDict(
     (default): Linear(in_features=64, out_features=4096, bias=False)
   )
   (lora_embedding_A): ParameterDict()
   (lora_embedding_B): ParameterDict()
   (lora_magnitude_vector): ModuleDict()
 ),
 Linear4bit(in_features=14336, out_features=4096, bias=False),
 ModuleDict(
   (default): Identity()
 ),
 Identity(),
 ModuleDict(
   (default): Linear(in_features=14336, out_features=64, bias=False)
 ),
 Linear(in_features=14336, out_features=64, bias=False),
 ModuleDict(
   (default): Linear(in_features=64, out_features=4096, bias=False)
 ),
 Linear(in_features=64, out_features=4096, bias=False),
 ParameterDict(),
 ParameterDict(),
 ModuleDict(),
 SiLU(),
 LlamaRMSNorm((4096,), eps=1e-05),
 LlamaRMSNorm((4096,), eps=1e-05),
 LlamaDecoderLayer(
   (self_attn): LlamaAttention(
     (q_proj): lora.Linear4bit(
       (base_layer): Linear4bit(in_features=4096, out_features=4096, bias=False)
       (lora_dropout): ModuleDict(
         (default): Identity()
       )
       (lora_A): ModuleDict(
         (default): Linear(in_features=4096, out_features=64, bias=False)
       )
       (lora_B): ModuleDict(
         (default): Linear(in_features=64, out_features=4096, bias=False)
       )
       (lora_embedding_A): ParameterDict()
       (lora_embedding_B): ParameterDict()
       (lora_magnitude_vector): ModuleDict()
     )
     (k_proj): lora.Linear4bit(
       (base_layer): Linear4bit(in_features=4096, out_features=1024, bias=False)
       (lora_dropout): ModuleDict(
         (default): Identity()
       )
       (lora_A): ModuleDict(
         (default): Linear(in_features=4096, out_features=64, bias=False)
       )
       (lora_B): ModuleDict(
         (default): Linear(in_features=64, out_features=1024, bias=False)
       )
       (lora_embedding_A): ParameterDict()
       (lora_embedding_B): ParameterDict()
       (lora_magnitude_vector): ModuleDict()
     )
     (v_proj): lora.Linear4bit(
       (base_layer): Linear4bit(in_features=4096, out_features=1024, bias=False)
       (lora_dropout): ModuleDict(
         (default): Identity()
       )
       (lora_A): ModuleDict(
         (default): Linear(in_features=4096, out_features=64, bias=False)
       )
       (lora_B): ModuleDict(
         (default): Linear(in_features=64, out_features=1024, bias=False)
       )
       (lora_embedding_A): ParameterDict()
       (lora_embedding_B): ParameterDict()
       (lora_magnitude_vector): ModuleDict()
     )
     (o_proj): lora.Linear4bit(
       (base_layer): Linear4bit(in_features=4096, out_features=4096, bias=False)
       (lora_dropout): ModuleDict(
         (default): Identity()
       )
       (lora_A): ModuleDict(
         (default): Linear(in_features=4096, out_features=64, bias=False)
       )
       (lora_B): ModuleDict(
         (default): Linear(in_features=64, out_features=4096, bias=False)
       )
       (lora_embedding_A): ParameterDict()
       (lora_embedding_B): ParameterDict()
       (lora_magnitude_vector): ModuleDict()
     )
   )
   (mlp): LlamaMLP(
     (gate_proj): lora.Linear4bit(
       (base_layer): Linear4bit(in_features=4096, out_features=14336, bias=False)
       (lora_dropout): ModuleDict(
         (default): Identity()
       )
       (lora_A): ModuleDict(
         (default): Linear(in_features=4096, out_features=64, bias=False)
       )
       (lora_B): ModuleDict(
         (default): Linear(in_features=64, out_features=14336, bias=False)
       )
       (lora_embedding_A): ParameterDict()
       (lora_embedding_B): ParameterDict()
       (lora_magnitude_vector): ModuleDict()
     )
     (up_proj): lora.Linear4bit(
       (base_layer): Linear4bit(in_features=4096, out_features=14336, bias=False)
       (lora_dropout): ModuleDict(
         (default): Identity()
       )
       (lora_A): ModuleDict(
         (default): Linear(in_features=4096, out_features=64, bias=False)
       )
       (lora_B): ModuleDict(
         (default): Linear(in_features=64, out_features=14336, bias=False)
       )
       (lora_embedding_A): ParameterDict()
       (lora_embedding_B): ParameterDict()
       (lora_magnitude_vector): ModuleDict()
     )
     (down_proj): lora.Linear4bit(
       (base_layer): Linear4bit(in_features=14336, out_features=4096, bias=False)
       (lora_dropout): ModuleDict(
         (default): Identity()
       )
       (lora_A): ModuleDict(
         (default): Linear(in_features=14336, out_features=64, bias=False)
       )
       (lora_B): ModuleDict(
         (default): Linear(in_features=64, out_features=4096, bias=False)
       )
       (lora_embedding_A): ParameterDict()
       (lora_embedding_B): ParameterDict()
       (lora_magnitude_vector): ModuleDict()
     )
     (act_fn): SiLU()
   )
   (input_layernorm): LlamaRMSNorm((4096,), eps=1e-05)
   (post_attention_layernorm): LlamaRMSNorm((4096,), eps=1e-05)
 ),
 LlamaAttention(
   (q_proj): lora.Linear4bit(
     (base_layer): Linear4bit(in_features=4096, out_features=4096, bias=False)
     (lora_dropout): ModuleDict(
       (default): Identity()
     )
     (lora_A): ModuleDict(
       (default): Linear(in_features=4096, out_features=64, bias=False)
     )
     (lora_B): ModuleDict(
       (default): Linear(in_features=64, out_features=4096, bias=False)
     )
     (lora_embedding_A): ParameterDict()
     (lora_embedding_B): ParameterDict()
     (lora_magnitude_vector): ModuleDict()
   )
   (k_proj): lora.Linear4bit(
     (base_layer): Linear4bit(in_features=4096, out_features=1024, bias=False)
     (lora_dropout): ModuleDict(
       (default): Identity()
     )
     (lora_A): ModuleDict(
       (default): Linear(in_features=4096, out_features=64, bias=False)
     )
     (lora_B): ModuleDict(
       (default): Linear(in_features=64, out_features=1024, bias=False)
     )
     (lora_embedding_A): ParameterDict()
     (lora_embedding_B): ParameterDict()
     (lora_magnitude_vector): ModuleDict()
   )
   (v_proj): lora.Linear4bit(
     (base_layer): Linear4bit(in_features=4096, out_features=1024, bias=False)
     (lora_dropout): ModuleDict(
       (default): Identity()
     )
     (lora_A): ModuleDict(
       (default): Linear(in_features=4096, out_features=64, bias=False)
     )
     (lora_B): ModuleDict(
       (default): Linear(in_features=64, out_features=1024, bias=False)
     )
     (lora_embedding_A): ParameterDict()
     (lora_embedding_B): ParameterDict()
     (lora_magnitude_vector): ModuleDict()
   )
   (o_proj): lora.Linear4bit(
     (base_layer): Linear4bit(in_features=4096, out_features=4096, bias=False)
     (lora_dropout): ModuleDict(
       (default): Identity()
     )
     (lora_A): ModuleDict(
       (default): Linear(in_features=4096, out_features=64, bias=False)
     )
     (lora_B): ModuleDict(
       (default): Linear(in_features=64, out_features=4096, bias=False)
     )
     (lora_embedding_A): ParameterDict()
     (lora_embedding_B): ParameterDict()
     (lora_magnitude_vector): ModuleDict()
   )
 ),
 lora.Linear4bit(
   (base_layer): Linear4bit(in_features=4096, out_features=4096, bias=False)
   (lora_dropout): ModuleDict(
     (default): Identity()
   )
   (lora_A): ModuleDict(
     (default): Linear(in_features=4096, out_features=64, bias=False)
   )
   (lora_B): ModuleDict(
     (default): Linear(in_features=64, out_features=4096, bias=False)
   )
   (lora_embedding_A): ParameterDict()
   (lora_embedding_B): ParameterDict()
   (lora_magnitude_vector): ModuleDict()
 ),
 Linear4bit(in_features=4096, out_features=4096, bias=False),
 ModuleDict(
   (default): Identity()
 ),
 Identity(),
 ModuleDict(
   (default): Linear(in_features=4096, out_features=64, bias=False)
 ),
 Linear(in_features=4096, out_features=64, bias=False),
 ModuleDict(
   (default): Linear(in_features=64, out_features=4096, bias=False)
 ),
 Linear(in_features=64, out_features=4096, bias=False),
 ParameterDict(),
 ParameterDict(),
 ModuleDict(),
 lora.Linear4bit(
   (base_layer): Linear4bit(in_features=4096, out_features=1024, bias=False)
   (lora_dropout): ModuleDict(
     (default): Identity()
   )
   (lora_A): ModuleDict(
     (default): Linear(in_features=4096, out_features=64, bias=False)
   )
   (lora_B): ModuleDict(
     (default): Linear(in_features=64, out_features=1024, bias=False)
   )
   (lora_embedding_A): ParameterDict()
   (lora_embedding_B): ParameterDict()
   (lora_magnitude_vector): ModuleDict()
 ),
 Linear4bit(in_features=4096, out_features=1024, bias=False),
 ModuleDict(
   (default): Identity()
 ),
 Identity(),
 ModuleDict(
   (default): Linear(in_features=4096, out_features=64, bias=False)
 ),
 Linear(in_features=4096, out_features=64, bias=False),
 ModuleDict(
   (default): Linear(in_features=64, out_features=1024, bias=False)
 ),
 Linear(in_features=64, out_features=1024, bias=False),
 ParameterDict(),
 ParameterDict(),
 ModuleDict(),
 lora.Linear4bit(
   (base_layer): Linear4bit(in_features=4096, out_features=1024, bias=False)
   (lora_dropout): ModuleDict(
     (default): Identity()
   )
   (lora_A): ModuleDict(
     (default): Linear(in_features=4096, out_features=64, bias=False)
   )
   (lora_B): ModuleDict(
     (default): Linear(in_features=64, out_features=1024, bias=False)
   )
   (lora_embedding_A): ParameterDict()
   (lora_embedding_B): ParameterDict()
   (lora_magnitude_vector): ModuleDict()
 ),
 Linear4bit(in_features=4096, out_features=1024, bias=False),
 ModuleDict(
   (default): Identity()
 ),
 Identity(),
 ModuleDict(
   (default): Linear(in_features=4096, out_features=64, bias=False)
 ),
 Linear(in_features=4096, out_features=64, bias=False),
 ModuleDict(
   (default): Linear(in_features=64, out_features=1024, bias=False)
 ),
 Linear(in_features=64, out_features=1024, bias=False),
 ParameterDict(),
 ParameterDict(),
 ModuleDict(),
 lora.Linear4bit(
   (base_layer): Linear4bit(in_features=4096, out_features=4096, bias=False)
   (lora_dropout): ModuleDict(
     (default): Identity()
   )
   (lora_A): ModuleDict(
     (default): Linear(in_features=4096, out_features=64, bias=False)
   )
   (lora_B): ModuleDict(
     (default): Linear(in_features=64, out_features=4096, bias=False)
   )
   (lora_embedding_A): ParameterDict()
   (lora_embedding_B): ParameterDict()
   (lora_magnitude_vector): ModuleDict()
 ),
 Linear4bit(in_features=4096, out_features=4096, bias=False),
 ModuleDict(
   (default): Identity()
 ),
 Identity(),
 ModuleDict(
   (default): Linear(in_features=4096, out_features=64, bias=False)
 ),
 Linear(in_features=4096, out_features=64, bias=False),
 ModuleDict(
   (default): Linear(in_features=64, out_features=4096, bias=False)
 ),
 Linear(in_features=64, out_features=4096, bias=False),
 ParameterDict(),
 ParameterDict(),
 ModuleDict(),
 LlamaMLP(
   (gate_proj): lora.Linear4bit(
     (base_layer): Linear4bit(in_features=4096, out_features=14336, bias=False)
     (lora_dropout): ModuleDict(
       (default): Identity()
     )
     (lora_A): ModuleDict(
       (default): Linear(in_features=4096, out_features=64, bias=False)
     )
     (lora_B): ModuleDict(
       (default): Linear(in_features=64, out_features=14336, bias=False)
     )
     (lora_embedding_A): ParameterDict()
     (lora_embedding_B): ParameterDict()
     (lora_magnitude_vector): ModuleDict()
   )
   (up_proj): lora.Linear4bit(
     (base_layer): Linear4bit(in_features=4096, out_features=14336, bias=False)
     (lora_dropout): ModuleDict(
       (default): Identity()
     )
     (lora_A): ModuleDict(
       (default): Linear(in_features=4096, out_features=64, bias=False)
     )
     (lora_B): ModuleDict(
       (default): Linear(in_features=64, out_features=14336, bias=False)
     )
     (lora_embedding_A): ParameterDict()
     (lora_embedding_B): ParameterDict()
     (lora_magnitude_vector): ModuleDict()
   )
   (down_proj): lora.Linear4bit(
     (base_layer): Linear4bit(in_features=14336, out_features=4096, bias=False)
     (lora_dropout): ModuleDict(
       (default): Identity()
     )
     (lora_A): ModuleDict(
       (default): Linear(in_features=14336, out_features=64, bias=False)
     )
     (lora_B): ModuleDict(
       (default): Linear(in_features=64, out_features=4096, bias=False)
     )
     (lora_embedding_A): ParameterDict()
     (lora_embedding_B): ParameterDict()
     (lora_magnitude_vector): ModuleDict()
   )
   (act_fn): SiLU()
 ),
 lora.Linear4bit(
   (base_layer): Linear4bit(in_features=4096, out_features=14336, bias=False)
   (lora_dropout): ModuleDict(
     (default): Identity()
   )
   (lora_A): ModuleDict(
     (default): Linear(in_features=4096, out_features=64, bias=False)
   )
   (lora_B): ModuleDict(
     (default): Linear(in_features=64, out_features=14336, bias=False)
   )
   (lora_embedding_A): ParameterDict()
   (lora_embedding_B): ParameterDict()
   (lora_magnitude_vector): ModuleDict()
 ),
 Linear4bit(in_features=4096, out_features=14336, bias=False),
 ModuleDict(
   (default): Identity()
 ),
 Identity(),
 ModuleDict(
   (default): Linear(in_features=4096, out_features=64, bias=False)
 ),
 Linear(in_features=4096, out_features=64, bias=False),
 ModuleDict(
   (default): Linear(in_features=64, out_features=14336, bias=False)
 ),
 Linear(in_features=64, out_features=14336, bias=False),
 ParameterDict(),
 ParameterDict(),
 ModuleDict(),
 lora.Linear4bit(
   (base_layer): Linear4bit(in_features=4096, out_features=14336, bias=False)
   (lora_dropout): ModuleDict(
     (default): Identity()
   )
   (lora_A): ModuleDict(
     (default): Linear(in_features=4096, out_features=64, bias=False)
   )
   (lora_B): ModuleDict(
     (default): Linear(in_features=64, out_features=14336, bias=False)
   )
   (lora_embedding_A): ParameterDict()
   (lora_embedding_B): ParameterDict()
   (lora_magnitude_vector): ModuleDict()
 ),
 Linear4bit(in_features=4096, out_features=14336, bias=False),
 ModuleDict(
   (default): Identity()
 ),
 Identity(),
 ModuleDict(
   (default): Linear(in_features=4096, out_features=64, bias=False)
 ),
 Linear(in_features=4096, out_features=64, bias=False),
 ModuleDict(
   (default): Linear(in_features=64, out_features=14336, bias=False)
 ),
 Linear(in_features=64, out_features=14336, bias=False),
 ParameterDict(),
 ParameterDict(),
 ModuleDict(),
 lora.Linear4bit(
   (base_layer): Linear4bit(in_features=14336, out_features=4096, bias=False)
   (lora_dropout): ModuleDict(
     (default): Identity()
   )
   (lora_A): ModuleDict(
     (default): Linear(in_features=14336, out_features=64, bias=False)
   )
   (lora_B): ModuleDict(
     (default): Linear(in_features=64, out_features=4096, bias=False)
   )
   (lora_embedding_A): ParameterDict()
   (lora_embedding_B): ParameterDict()
   (lora_magnitude_vector): ModuleDict()
 ),
 Linear4bit(in_features=14336, out_features=4096, bias=False),
 ModuleDict(
   (default): Identity()
 ),
 Identity(),
 ModuleDict(
   (default): Linear(in_features=14336, out_features=64, bias=False)
 ),
 Linear(in_features=14336, out_features=64, bias=False),
 ModuleDict(
   (default): Linear(in_features=64, out_features=4096, bias=False)
 ),
 Linear(in_features=64, out_features=4096, bias=False),
 ParameterDict(),
 ParameterDict(),
 ModuleDict(),
 SiLU(),
 LlamaRMSNorm((4096,), eps=1e-05),
 LlamaRMSNorm((4096,), eps=1e-05),
 LlamaDecoderLayer(
   (self_attn): LlamaAttention(
     (q_proj): lora.Linear4bit(
       (base_layer): Linear4bit(in_features=4096, out_features=4096, bias=False)
       (lora_dropout): ModuleDict(
         (default): Identity()
       )
       (lora_A): ModuleDict(
         (default): Linear(in_features=4096, out_features=64, bias=False)
       )
       (lora_B): ModuleDict(
         (default): Linear(in_features=64, out_features=4096, bias=False)
       )
       (lora_embedding_A): ParameterDict()
       (lora_embedding_B): ParameterDict()
       (lora_magnitude_vector): ModuleDict()
     )
     (k_proj): lora.Linear4bit(
       (base_layer): Linear4bit(in_features=4096, out_features=1024, bias=False)
       (lora_dropout): ModuleDict(
         (default): Identity()
       )
       (lora_A): ModuleDict(
         (default): Linear(in_features=4096, out_features=64, bias=False)
       )
       (lora_B): ModuleDict(
         (default): Linear(in_features=64, out_features=1024, bias=False)
       )
       (lora_embedding_A): ParameterDict()
       (lora_embedding_B): ParameterDict()
       (lora_magnitude_vector): ModuleDict()
     )
     (v_proj): lora.Linear4bit(
       (base_layer): Linear4bit(in_features=4096, out_features=1024, bias=False)
       (lora_dropout): ModuleDict(
         (default): Identity()
       )
       (lora_A): ModuleDict(
         (default): Linear(in_features=4096, out_features=64, bias=False)
       )
       (lora_B): ModuleDict(
         (default): Linear(in_features=64, out_features=1024, bias=False)
       )
       (lora_embedding_A): ParameterDict()
       (lora_embedding_B): ParameterDict()
       (lora_magnitude_vector): ModuleDict()
     )
     (o_proj): lora.Linear4bit(
       (base_layer): Linear4bit(in_features=4096, out_features=4096, bias=False)
       (lora_dropout): ModuleDict(
         (default): Identity()
       )
       (lora_A): ModuleDict(
         (default): Linear(in_features=4096, out_features=64, bias=False)
       )
       (lora_B): ModuleDict(
         (default): Linear(in_features=64, out_features=4096, bias=False)
       )
       (lora_embedding_A): ParameterDict()
       (lora_embedding_B): ParameterDict()
       (lora_magnitude_vector): ModuleDict()
     )
   )
   (mlp): LlamaMLP(
     (gate_proj): lora.Linear4bit(
       (base_layer): Linear4bit(in_features=4096, out_features=14336, bias=False)
       (lora_dropout): ModuleDict(
         (default): Identity()
       )
       (lora_A): ModuleDict(
         (default): Linear(in_features=4096, out_features=64, bias=False)
       )
       (lora_B): ModuleDict(
         (default): Linear(in_features=64, out_features=14336, bias=False)
       )
       (lora_embedding_A): ParameterDict()
       (lora_embedding_B): ParameterDict()
       (lora_magnitude_vector): ModuleDict()
     )
     (up_proj): lora.Linear4bit(
       (base_layer): Linear4bit(in_features=4096, out_features=14336, bias=False)
       (lora_dropout): ModuleDict(
         (default): Identity()
       )
       (lora_A): ModuleDict(
         (default): Linear(in_features=4096, out_features=64, bias=False)
       )
       (lora_B): ModuleDict(
         (default): Linear(in_features=64, out_features=14336, bias=False)
       )
       (lora_embedding_A): ParameterDict()
       (lora_embedding_B): ParameterDict()
       (lora_magnitude_vector): ModuleDict()
     )
     (down_proj): lora.Linear4bit(
       (base_layer): Linear4bit(in_features=14336, out_features=4096, bias=False)
       (lora_dropout): ModuleDict(
         (default): Identity()
       )
       (lora_A): ModuleDict(
         (default): Linear(in_features=14336, out_features=64, bias=False)
       )
       (lora_B): ModuleDict(
         (default): Linear(in_features=64, out_features=4096, bias=False)
       )
       (lora_embedding_A): ParameterDict()
       (lora_embedding_B): ParameterDict()
       (lora_magnitude_vector): ModuleDict()
     )
     (act_fn): SiLU()
   )
   (input_layernorm): LlamaRMSNorm((4096,), eps=1e-05)
   (post_attention_layernorm): LlamaRMSNorm((4096,), eps=1e-05)
 ),
 LlamaAttention(
   (q_proj): lora.Linear4bit(
     (base_layer): Linear4bit(in_features=4096, out_features=4096, bias=False)
     (lora_dropout): ModuleDict(
       (default): Identity()
     )
     (lora_A): ModuleDict(
       (default): Linear(in_features=4096, out_features=64, bias=False)
     )
     (lora_B): ModuleDict(
       (default): Linear(in_features=64, out_features=4096, bias=False)
     )
     (lora_embedding_A): ParameterDict()
     (lora_embedding_B): ParameterDict()
     (lora_magnitude_vector): ModuleDict()
   )
   (k_proj): lora.Linear4bit(
     (base_layer): Linear4bit(in_features=4096, out_features=1024, bias=False)
     (lora_dropout): ModuleDict(
       (default): Identity()
     )
     (lora_A): ModuleDict(
       (default): Linear(in_features=4096, out_features=64, bias=False)
     )
     (lora_B): ModuleDict(
       (default): Linear(in_features=64, out_features=1024, bias=False)
     )
     (lora_embedding_A): ParameterDict()
     (lora_embedding_B): ParameterDict()
     (lora_magnitude_vector): ModuleDict()
   )
   (v_proj): lora.Linear4bit(
     (base_layer): Linear4bit(in_features=4096, out_features=1024, bias=False)
     (lora_dropout): ModuleDict(
       (default): Identity()
     )
     (lora_A): ModuleDict(
       (default): Linear(in_features=4096, out_features=64, bias=False)
     )
     (lora_B): ModuleDict(
       (default): Linear(in_features=64, out_features=1024, bias=False)
     )
     (lora_embedding_A): ParameterDict()
     (lora_embedding_B): ParameterDict()
     (lora_magnitude_vector): ModuleDict()
   )
   (o_proj): lora.Linear4bit(
     (base_layer): Linear4bit(in_features=4096, out_features=4096, bias=False)
     (lora_dropout): ModuleDict(
       (default): Identity()
     )
     (lora_A): ModuleDict(
       (default): Linear(in_features=4096, out_features=64, bias=False)
     )
     (lora_B): ModuleDict(
       (default): Linear(in_features=64, out_features=4096, bias=False)
     )
     (lora_embedding_A): ParameterDict()
     (lora_embedding_B): ParameterDict()
     (lora_magnitude_vector): ModuleDict()
   )
 ),
 lora.Linear4bit(
   (base_layer): Linear4bit(in_features=4096, out_features=4096, bias=False)
   (lora_dropout): ModuleDict(
     (default): Identity()
   )
   (lora_A): ModuleDict(
     (default): Linear(in_features=4096, out_features=64, bias=False)
   )
   (lora_B): ModuleDict(
     (default): Linear(in_features=64, out_features=4096, bias=False)
   )
   (lora_embedding_A): ParameterDict()
   (lora_embedding_B): ParameterDict()
   (lora_magnitude_vector): ModuleDict()
 ),
 Linear4bit(in_features=4096, out_features=4096, bias=False),
 ModuleDict(
   (default): Identity()
 ),
 Identity(),
 ModuleDict(
   (default): Linear(in_features=4096, out_features=64, bias=False)
 ),
 Linear(in_features=4096, out_features=64, bias=False),
 ModuleDict(
   (default): Linear(in_features=64, out_features=4096, bias=False)
 ),
 Linear(in_features=64, out_features=4096, bias=False),
 ParameterDict(),
 ParameterDict(),
 ModuleDict(),
 lora.Linear4bit(
   (base_layer): Linear4bit(in_features=4096, out_features=1024, bias=False)
   (lora_dropout): ModuleDict(
     (default): Identity()
   )
   (lora_A): ModuleDict(
     (default): Linear(in_features=4096, out_features=64, bias=False)
   )
   (lora_B): ModuleDict(
     (default): Linear(in_features=64, out_features=1024, bias=False)
   )
   (lora_embedding_A): ParameterDict()
   (lora_embedding_B): ParameterDict()
   (lora_magnitude_vector): ModuleDict()
 ),
 Linear4bit(in_features=4096, out_features=1024, bias=False),
 ModuleDict(
   (default): Identity()
 ),
 Identity(),
 ModuleDict(
   (default): Linear(in_features=4096, out_features=64, bias=False)
 ),
 Linear(in_features=4096, out_features=64, bias=False),
 ModuleDict(
   (default): Linear(in_features=64, out_features=1024, bias=False)
 ),
 Linear(in_features=64, out_features=1024, bias=False),
 ParameterDict(),
 ParameterDict(),
 ModuleDict(),
 lora.Linear4bit(
   (base_layer): Linear4bit(in_features=4096, out_features=1024, bias=False)
   (lora_dropout): ModuleDict(
     (default): Identity()
   )
   (lora_A): ModuleDict(
     (default): Linear(in_features=4096, out_features=64, bias=False)
   )
   (lora_B): ModuleDict(
     (default): Linear(in_features=64, out_features=1024, bias=False)
   )
   (lora_embedding_A): ParameterDict()
   (lora_embedding_B): ParameterDict()
   (lora_magnitude_vector): ModuleDict()
 ),
 Linear4bit(in_features=4096, out_features=1024, bias=False),
 ModuleDict(
   (default): Identity()
 ),
 Identity(),
 ModuleDict(
   (default): Linear(in_features=4096, out_features=64, bias=False)
 ),
 Linear(in_features=4096, out_features=64, bias=False),
 ModuleDict(
   (default): Linear(in_features=64, out_features=1024, bias=False)
 ),
 Linear(in_features=64, out_features=1024, bias=False),
 ParameterDict(),
 ParameterDict(),
 ModuleDict(),
 lora.Linear4bit(
   (base_layer): Linear4bit(in_features=4096, out_features=4096, bias=False)
   (lora_dropout): ModuleDict(
     (default): Identity()
   )
   (lora_A): ModuleDict(
     (default): Linear(in_features=4096, out_features=64, bias=False)
   )
   (lora_B): ModuleDict(
     (default): Linear(in_features=64, out_features=4096, bias=False)
   )
   (lora_embedding_A): ParameterDict()
   (lora_embedding_B): ParameterDict()
   (lora_magnitude_vector): ModuleDict()
 ),
 Linear4bit(in_features=4096, out_features=4096, bias=False),
 ModuleDict(
   (default): Identity()
 ),
 Identity(),
 ModuleDict(
   (default): Linear(in_features=4096, out_features=64, bias=False)
 ),
 Linear(in_features=4096, out_features=64, bias=False),
 ModuleDict(
   (default): Linear(in_features=64, out_features=4096, bias=False)
 ),
 Linear(in_features=64, out_features=4096, bias=False),
 ParameterDict(),
 ParameterDict(),
 ModuleDict(),
 LlamaMLP(
   (gate_proj): lora.Linear4bit(
     (base_layer): Linear4bit(in_features=4096, out_features=14336, bias=False)
     (lora_dropout): ModuleDict(
       (default): Identity()
     )
     (lora_A): ModuleDict(
       (default): Linear(in_features=4096, out_features=64, bias=False)
     )
     (lora_B): ModuleDict(
       (default): Linear(in_features=64, out_features=14336, bias=False)
     )
     (lora_embedding_A): ParameterDict()
     (lora_embedding_B): ParameterDict()
     (lora_magnitude_vector): ModuleDict()
   )
   (up_proj): lora.Linear4bit(
     (base_layer): Linear4bit(in_features=4096, out_features=14336, bias=False)
     (lora_dropout): ModuleDict(
       (default): Identity()
     )
     (lora_A): ModuleDict(
       (default): Linear(in_features=4096, out_features=64, bias=False)
     )
     (lora_B): ModuleDict(
       (default): Linear(in_features=64, out_features=14336, bias=False)
     )
     (lora_embedding_A): ParameterDict()
     (lora_embedding_B): ParameterDict()
     (lora_magnitude_vector): ModuleDict()
   )
   (down_proj): lora.Linear4bit(
     (base_layer): Linear4bit(in_features=14336, out_features=4096, bias=False)
     (lora_dropout): ModuleDict(
       (default): Identity()
     )
     (lora_A): ModuleDict(
       (default): Linear(in_features=14336, out_features=64, bias=False)
     )
     (lora_B): ModuleDict(
       (default): Linear(in_features=64, out_features=4096, bias=False)
     )
     (lora_embedding_A): ParameterDict()
     (lora_embedding_B): ParameterDict()
     (lora_magnitude_vector): ModuleDict()
   )
   (act_fn): SiLU()
 ),
 lora.Linear4bit(
   (base_layer): Linear4bit(in_features=4096, out_features=14336, bias=False)
   (lora_dropout): ModuleDict(
     (default): Identity()
   )
   (lora_A): ModuleDict(
     (default): Linear(in_features=4096, out_features=64, bias=False)
   )
   (lora_B): ModuleDict(
     (default): Linear(in_features=64, out_features=14336, bias=False)
   )
   (lora_embedding_A): ParameterDict()
   (lora_embedding_B): ParameterDict()
   (lora_magnitude_vector): ModuleDict()
 ),
 Linear4bit(in_features=4096, out_features=14336, bias=False),
 ModuleDict(
   (default): Identity()
 ),
 Identity(),
 ModuleDict(
   (default): Linear(in_features=4096, out_features=64, bias=False)
 ),
 Linear(in_features=4096, out_features=64, bias=False),
 ModuleDict(
   (default): Linear(in_features=64, out_features=14336, bias=False)
 ),
 Linear(in_features=64, out_features=14336, bias=False),
 ParameterDict(),
 ParameterDict(),
 ModuleDict(),
 lora.Linear4bit(
   (base_layer): Linear4bit(in_features=4096, out_features=14336, bias=False)
   (lora_dropout): ModuleDict(
     (default): Identity()
   )
   (lora_A): ModuleDict(
     (default): Linear(in_features=4096, out_features=64, bias=False)
   )
   (lora_B): ModuleDict(
     (default): Linear(in_features=64, out_features=14336, bias=False)
   )
   (lora_embedding_A): ParameterDict()
   (lora_embedding_B): ParameterDict()
   (lora_magnitude_vector): ModuleDict()
 ),
 Linear4bit(in_features=4096, out_features=14336, bias=False),
 ModuleDict(
   (default): Identity()
 ),
 Identity(),
 ModuleDict(
   (default): Linear(in_features=4096, out_features=64, bias=False)
 ),
 Linear(in_features=4096, out_features=64, bias=False),
 ModuleDict(
   (default): Linear(in_features=64, out_features=14336, bias=False)
 ),
 Linear(in_features=64, out_features=14336, bias=False),
 ParameterDict(),
 ParameterDict(),
 ModuleDict(),
 lora.Linear4bit(
   (base_layer): Linear4bit(in_features=14336, out_features=4096, bias=False)
   (lora_dropout): ModuleDict(
     (default): Identity()
   )
   (lora_A): ModuleDict(
     (default): Linear(in_features=14336, out_features=64, bias=False)
   )
   (lora_B): ModuleDict(
     (default): Linear(in_features=64, out_features=4096, bias=False)
   )
   (lora_embedding_A): ParameterDict()
   (lora_embedding_B): ParameterDict()
   (lora_magnitude_vector): ModuleDict()
 ),
 Linear4bit(in_features=14336, out_features=4096, bias=False),
 ModuleDict(
   (default): Identity()
 ),
 Identity(),
 ModuleDict(
   (default): Linear(in_features=14336, out_features=64, bias=False)
 ),
 Linear(in_features=14336, out_features=64, bias=False),
 ModuleDict(
   (default): Linear(in_features=64, out_features=4096, bias=False)
 ),
 Linear(in_features=64, out_features=4096, bias=False),
 ParameterDict(),
 ParameterDict(),
 ModuleDict(),
 SiLU(),
 LlamaRMSNorm((4096,), eps=1e-05),
 LlamaRMSNorm((4096,), eps=1e-05),
 LlamaDecoderLayer(
   (self_attn): LlamaAttention(
     (q_proj): lora.Linear4bit(
       (base_layer): Linear4bit(in_features=4096, out_features=4096, bias=False)
       (lora_dropout): ModuleDict(
         (default): Identity()
       )
       (lora_A): ModuleDict(
         (default): Linear(in_features=4096, out_features=64, bias=False)
       )
       (lora_B): ModuleDict(
         (default): Linear(in_features=64, out_features=4096, bias=False)
       )
       (lora_embedding_A): ParameterDict()
       (lora_embedding_B): ParameterDict()
       (lora_magnitude_vector): ModuleDict()
     )
     (k_proj): lora.Linear4bit(
       (base_layer): Linear4bit(in_features=4096, out_features=1024, bias=False)
       (lora_dropout): ModuleDict(
         (default): Identity()
       )
       (lora_A): ModuleDict(
         (default): Linear(in_features=4096, out_features=64, bias=False)
       )
       (lora_B): ModuleDict(
         (default): Linear(in_features=64, out_features=1024, bias=False)
       )
       (lora_embedding_A): ParameterDict()
       (lora_embedding_B): ParameterDict()
       (lora_magnitude_vector): ModuleDict()
     )
     (v_proj): lora.Linear4bit(
       (base_layer): Linear4bit(in_features=4096, out_features=1024, bias=False)
       (lora_dropout): ModuleDict(
         (default): Identity()
       )
       (lora_A): ModuleDict(
         (default): Linear(in_features=4096, out_features=64, bias=False)
       )
       (lora_B): ModuleDict(
         (default): Linear(in_features=64, out_features=1024, bias=False)
       )
       (lora_embedding_A): ParameterDict()
       (lora_embedding_B): ParameterDict()
       (lora_magnitude_vector): ModuleDict()
     )
     (o_proj): lora.Linear4bit(
       (base_layer): Linear4bit(in_features=4096, out_features=4096, bias=False)
       (lora_dropout): ModuleDict(
         (default): Identity()
       )
       (lora_A): ModuleDict(
         (default): Linear(in_features=4096, out_features=64, bias=False)
       )
       (lora_B): ModuleDict(
         (default): Linear(in_features=64, out_features=4096, bias=False)
       )
       (lora_embedding_A): ParameterDict()
       (lora_embedding_B): ParameterDict()
       (lora_magnitude_vector): ModuleDict()
     )
   )
   (mlp): LlamaMLP(
     (gate_proj): lora.Linear4bit(
       (base_layer): Linear4bit(in_features=4096, out_features=14336, bias=False)
       (lora_dropout): ModuleDict(
         (default): Identity()
       )
       (lora_A): ModuleDict(
         (default): Linear(in_features=4096, out_features=64, bias=False)
       )
       (lora_B): ModuleDict(
         (default): Linear(in_features=64, out_features=14336, bias=False)
       )
       (lora_embedding_A): ParameterDict()
       (lora_embedding_B): ParameterDict()
       (lora_magnitude_vector): ModuleDict()
     )
     (up_proj): lora.Linear4bit(
       (base_layer): Linear4bit(in_features=4096, out_features=14336, bias=False)
       (lora_dropout): ModuleDict(
         (default): Identity()
       )
       (lora_A): ModuleDict(
         (default): Linear(in_features=4096, out_features=64, bias=False)
       )
       (lora_B): ModuleDict(
         (default): Linear(in_features=64, out_features=14336, bias=False)
       )
       (lora_embedding_A): ParameterDict()
       (lora_embedding_B): ParameterDict()
       (lora_magnitude_vector): ModuleDict()
     )
     (down_proj): lora.Linear4bit(
       (base_layer): Linear4bit(in_features=14336, out_features=4096, bias=False)
       (lora_dropout): ModuleDict(
         (default): Identity()
       )
       (lora_A): ModuleDict(
         (default): Linear(in_features=14336, out_features=64, bias=False)
       )
       (lora_B): ModuleDict(
         (default): Linear(in_features=64, out_features=4096, bias=False)
       )
       (lora_embedding_A): ParameterDict()
       (lora_embedding_B): ParameterDict()
       (lora_magnitude_vector): ModuleDict()
     )
     (act_fn): SiLU()
   )
   (input_layernorm): LlamaRMSNorm((4096,), eps=1e-05)
   (post_attention_layernorm): LlamaRMSNorm((4096,), eps=1e-05)
 ),
 LlamaAttention(
   (q_proj): lora.Linear4bit(
     (base_layer): Linear4bit(in_features=4096, out_features=4096, bias=False)
     (lora_dropout): ModuleDict(
       (default): Identity()
     )
     (lora_A): ModuleDict(
       (default): Linear(in_features=4096, out_features=64, bias=False)
     )
     (lora_B): ModuleDict(
       (default): Linear(in_features=64, out_features=4096, bias=False)
     )
     (lora_embedding_A): ParameterDict()
     (lora_embedding_B): ParameterDict()
     (lora_magnitude_vector): ModuleDict()
   )
   (k_proj): lora.Linear4bit(
     (base_layer): Linear4bit(in_features=4096, out_features=1024, bias=False)
     (lora_dropout): ModuleDict(
       (default): Identity()
     )
     (lora_A): ModuleDict(
       (default): Linear(in_features=4096, out_features=64, bias=False)
     )
     (lora_B): ModuleDict(
       (default): Linear(in_features=64, out_features=1024, bias=False)
     )
     (lora_embedding_A): ParameterDict()
     (lora_embedding_B): ParameterDict()
     (lora_magnitude_vector): ModuleDict()
   )
   (v_proj): lora.Linear4bit(
     (base_layer): Linear4bit(in_features=4096, out_features=1024, bias=False)
     (lora_dropout): ModuleDict(
       (default): Identity()
     )
     (lora_A): ModuleDict(
       (default): Linear(in_features=4096, out_features=64, bias=False)
     )
     (lora_B): ModuleDict(
       (default): Linear(in_features=64, out_features=1024, bias=False)
     )
     (lora_embedding_A): ParameterDict()
     (lora_embedding_B): ParameterDict()
     (lora_magnitude_vector): ModuleDict()
   )
   (o_proj): lora.Linear4bit(
     (base_layer): Linear4bit(in_features=4096, out_features=4096, bias=False)
     (lora_dropout): ModuleDict(
       (default): Identity()
     )
     (lora_A): ModuleDict(
       (default): Linear(in_features=4096, out_features=64, bias=False)
     )
     (lora_B): ModuleDict(
       (default): Linear(in_features=64, out_features=4096, bias=False)
     )
     (lora_embedding_A): ParameterDict()
     (lora_embedding_B): ParameterDict()
     (lora_magnitude_vector): ModuleDict()
   )
 ),
 lora.Linear4bit(
   (base_layer): Linear4bit(in_features=4096, out_features=4096, bias=False)
   (lora_dropout): ModuleDict(
     (default): Identity()
   )
   (lora_A): ModuleDict(
     (default): Linear(in_features=4096, out_features=64, bias=False)
   )
   (lora_B): ModuleDict(
     (default): Linear(in_features=64, out_features=4096, bias=False)
   )
   (lora_embedding_A): ParameterDict()
   (lora_embedding_B): ParameterDict()
   (lora_magnitude_vector): ModuleDict()
 ),
 Linear4bit(in_features=4096, out_features=4096, bias=False),
 ModuleDict(
   (default): Identity()
 ),
 Identity(),
 ModuleDict(
   (default): Linear(in_features=4096, out_features=64, bias=False)
 ),
 Linear(in_features=4096, out_features=64, bias=False),
 ModuleDict(
   (default): Linear(in_features=64, out_features=4096, bias=False)
 ),
 Linear(in_features=64, out_features=4096, bias=False),
 ParameterDict(),
 ParameterDict(),
 ModuleDict(),
 lora.Linear4bit(
   (base_layer): Linear4bit(in_features=4096, out_features=1024, bias=False)
   (lora_dropout): ModuleDict(
     (default): Identity()
   )
   (lora_A): ModuleDict(
     (default): Linear(in_features=4096, out_features=64, bias=False)
   )
   (lora_B): ModuleDict(
     (default): Linear(in_features=64, out_features=1024, bias=False)
   )
   (lora_embedding_A): ParameterDict()
   (lora_embedding_B): ParameterDict()
   (lora_magnitude_vector): ModuleDict()
 ),
 Linear4bit(in_features=4096, out_features=1024, bias=False),
 ModuleDict(
   (default): Identity()
 ),
 Identity(),
 ModuleDict(
   (default): Linear(in_features=4096, out_features=64, bias=False)
 ),
 Linear(in_features=4096, out_features=64, bias=False),
 ModuleDict(
   (default): Linear(in_features=64, out_features=1024, bias=False)
 ),
 Linear(in_features=64, out_features=1024, bias=False),
 ParameterDict(),
 ParameterDict(),
 ModuleDict(),
 lora.Linear4bit(
   (base_layer): Linear4bit(in_features=4096, out_features=1024, bias=False)
   (lora_dropout): ModuleDict(
     (default): Identity()
   )
   (lora_A): ModuleDict(
     (default): Linear(in_features=4096, out_features=64, bias=False)
   )
   (lora_B): ModuleDict(
     (default): Linear(in_features=64, out_features=1024, bias=False)
   )
   (lora_embedding_A): ParameterDict()
   (lora_embedding_B): ParameterDict()
   (lora_magnitude_vector): ModuleDict()
 ),
 Linear4bit(in_features=4096, out_features=1024, bias=False),
 ModuleDict(
   (default): Identity()
 ),
 Identity(),
 ModuleDict(
   (default): Linear(in_features=4096, out_features=64, bias=False)
 ),
 Linear(in_features=4096, out_features=64, bias=False),
 ModuleDict(
   (default): Linear(in_features=64, out_features=1024, bias=False)
 ),
 Linear(in_features=64, out_features=1024, bias=False),
 ParameterDict(),
 ParameterDict(),
 ModuleDict(),
 lora.Linear4bit(
   (base_layer): Linear4bit(in_features=4096, out_features=4096, bias=False)
   (lora_dropout): ModuleDict(
     (default): Identity()
   )
   (lora_A): ModuleDict(
     (default): Linear(in_features=4096, out_features=64, bias=False)
   )
   (lora_B): ModuleDict(
     (default): Linear(in_features=64, out_features=4096, bias=False)
   )
   (lora_embedding_A): ParameterDict()
   (lora_embedding_B): ParameterDict()
   (lora_magnitude_vector): ModuleDict()
 ),
 Linear4bit(in_features=4096, out_features=4096, bias=False),
 ModuleDict(
   (default): Identity()
 ),
 Identity(),
 ModuleDict(
   (default): Linear(in_features=4096, out_features=64, bias=False)
 ),
 Linear(in_features=4096, out_features=64, bias=False),
 ModuleDict(
   (default): Linear(in_features=64, out_features=4096, bias=False)
 ),
 Linear(in_features=64, out_features=4096, bias=False),
 ParameterDict(),
 ParameterDict(),
 ModuleDict(),
 LlamaMLP(
   (gate_proj): lora.Linear4bit(
     (base_layer): Linear4bit(in_features=4096, out_features=14336, bias=False)
     (lora_dropout): ModuleDict(
       (default): Identity()
     )
     (lora_A): ModuleDict(
       (default): Linear(in_features=4096, out_features=64, bias=False)
     )
     (lora_B): ModuleDict(
       (default): Linear(in_features=64, out_features=14336, bias=False)
     )
     (lora_embedding_A): ParameterDict()
     (lora_embedding_B): ParameterDict()
     (lora_magnitude_vector): ModuleDict()
   )
   (up_proj): lora.Linear4bit(
     (base_layer): Linear4bit(in_features=4096, out_features=14336, bias=False)
     (lora_dropout): ModuleDict(
       (default): Identity()
     )
     (lora_A): ModuleDict(
       (default): Linear(in_features=4096, out_features=64, bias=False)
     )
     (lora_B): ModuleDict(
       (default): Linear(in_features=64, out_features=14336, bias=False)
     )
     (lora_embedding_A): ParameterDict()
     (lora_embedding_B): ParameterDict()
     (lora_magnitude_vector): ModuleDict()
   )
   (down_proj): lora.Linear4bit(
     (base_layer): Linear4bit(in_features=14336, out_features=4096, bias=False)
     (lora_dropout): ModuleDict(
       (default): Identity()
     )
     (lora_A): ModuleDict(
       (default): Linear(in_features=14336, out_features=64, bias=False)
     )
     (lora_B): ModuleDict(
       (default): Linear(in_features=64, out_features=4096, bias=False)
     )
     (lora_embedding_A): ParameterDict()
     (lora_embedding_B): ParameterDict()
     (lora_magnitude_vector): ModuleDict()
   )
   (act_fn): SiLU()
 ),
 lora.Linear4bit(
   (base_layer): Linear4bit(in_features=4096, out_features=14336, bias=False)
   (lora_dropout): ModuleDict(
     (default): Identity()
   )
   (lora_A): ModuleDict(
     (default): Linear(in_features=4096, out_features=64, bias=False)
   )
   (lora_B): ModuleDict(
     (default): Linear(in_features=64, out_features=14336, bias=False)
   )
   (lora_embedding_A): ParameterDict()
   (lora_embedding_B): ParameterDict()
   (lora_magnitude_vector): ModuleDict()
 ),
 Linear4bit(in_features=4096, out_features=14336, bias=False),
 ModuleDict(
   (default): Identity()
 ),
 Identity(),
 ModuleDict(
   (default): Linear(in_features=4096, out_features=64, bias=False)
 ),
 Linear(in_features=4096, out_features=64, bias=False),
 ModuleDict(
   (default): Linear(in_features=64, out_features=14336, bias=False)
 ),
 Linear(in_features=64, out_features=14336, bias=False),
 ParameterDict(),
 ParameterDict(),
 ModuleDict(),
 lora.Linear4bit(
   (base_layer): Linear4bit(in_features=4096, out_features=14336, bias=False)
   (lora_dropout): ModuleDict(
     (default): Identity()
   )
   (lora_A): ModuleDict(
     (default): Linear(in_features=4096, out_features=64, bias=False)
   )
   (lora_B): ModuleDict(
     (default): Linear(in_features=64, out_features=14336, bias=False)
   )
   (lora_embedding_A): ParameterDict()
   (lora_embedding_B): ParameterDict()
   (lora_magnitude_vector): ModuleDict()
 ),
 Linear4bit(in_features=4096, out_features=14336, bias=False),
 ModuleDict(
   (default): Identity()
 ),
 Identity(),
 ModuleDict(
   (default): Linear(in_features=4096, out_features=64, bias=False)
 ),
 Linear(in_features=4096, out_features=64, bias=False),
 ModuleDict(
   (default): Linear(in_features=64, out_features=14336, bias=False)
 ),
 Linear(in_features=64, out_features=14336, bias=False),
 ParameterDict(),
 ParameterDict(),
 ModuleDict(),
 lora.Linear4bit(
   (base_layer): Linear4bit(in_features=14336, out_features=4096, bias=False)
   (lora_dropout): ModuleDict(
     (default): Identity()
   )
   (lora_A): ModuleDict(
     (default): Linear(in_features=14336, out_features=64, bias=False)
   )
   (lora_B): ModuleDict(
     (default): Linear(in_features=64, out_features=4096, bias=False)
   )
   (lora_embedding_A): ParameterDict()
   (lora_embedding_B): ParameterDict()
   (lora_magnitude_vector): ModuleDict()
 ),
 Linear4bit(in_features=14336, out_features=4096, bias=False),
 ModuleDict(
   (default): Identity()
 ),
 Identity(),
 ModuleDict(
   (default): Linear(in_features=14336, out_features=64, bias=False)
 ),
 Linear(in_features=14336, out_features=64, bias=False),
 ModuleDict(
   (default): Linear(in_features=64, out_features=4096, bias=False)
 ),
 Linear(in_features=64, out_features=4096, bias=False),
 ParameterDict(),
 ParameterDict(),
 ModuleDict(),
 SiLU(),
 LlamaRMSNorm((4096,), eps=1e-05),
 LlamaRMSNorm((4096,), eps=1e-05),
 LlamaDecoderLayer(
   (self_attn): LlamaAttention(
     (q_proj): lora.Linear4bit(
       (base_layer): Linear4bit(in_features=4096, out_features=4096, bias=False)
       (lora_dropout): ModuleDict(
         (default): Identity()
       )
       (lora_A): ModuleDict(
         (default): Linear(in_features=4096, out_features=64, bias=False)
       )
       (lora_B): ModuleDict(
         (default): Linear(in_features=64, out_features=4096, bias=False)
       )
       (lora_embedding_A): ParameterDict()
       (lora_embedding_B): ParameterDict()
       (lora_magnitude_vector): ModuleDict()
     )
     (k_proj): lora.Linear4bit(
       (base_layer): Linear4bit(in_features=4096, out_features=1024, bias=False)
       (lora_dropout): ModuleDict(
         (default): Identity()
       )
       (lora_A): ModuleDict(
         (default): Linear(in_features=4096, out_features=64, bias=False)
       )
       (lora_B): ModuleDict(
         (default): Linear(in_features=64, out_features=1024, bias=False)
       )
       (lora_embedding_A): ParameterDict()
       (lora_embedding_B): ParameterDict()
       (lora_magnitude_vector): ModuleDict()
     )
     (v_proj): lora.Linear4bit(
       (base_layer): Linear4bit(in_features=4096, out_features=1024, bias=False)
       (lora_dropout): ModuleDict(
         (default): Identity()
       )
       (lora_A): ModuleDict(
         (default): Linear(in_features=4096, out_features=64, bias=False)
       )
       (lora_B): ModuleDict(
         (default): Linear(in_features=64, out_features=1024, bias=False)
       )
       (lora_embedding_A): ParameterDict()
       (lora_embedding_B): ParameterDict()
       (lora_magnitude_vector): ModuleDict()
     )
     (o_proj): lora.Linear4bit(
       (base_layer): Linear4bit(in_features=4096, out_features=4096, bias=False)
       (lora_dropout): ModuleDict(
         (default): Identity()
       )
       (lora_A): ModuleDict(
         (default): Linear(in_features=4096, out_features=64, bias=False)
       )
       (lora_B): ModuleDict(
         (default): Linear(in_features=64, out_features=4096, bias=False)
       )
       (lora_embedding_A): ParameterDict()
       (lora_embedding_B): ParameterDict()
       (lora_magnitude_vector): ModuleDict()
     )
   )
   (mlp): LlamaMLP(
     (gate_proj): lora.Linear4bit(
       (base_layer): Linear4bit(in_features=4096, out_features=14336, bias=False)
       (lora_dropout): ModuleDict(
         (default): Identity()
       )
       (lora_A): ModuleDict(
         (default): Linear(in_features=4096, out_features=64, bias=False)
       )
       (lora_B): ModuleDict(
         (default): Linear(in_features=64, out_features=14336, bias=False)
       )
       (lora_embedding_A): ParameterDict()
       (lora_embedding_B): ParameterDict()
       (lora_magnitude_vector): ModuleDict()
     )
     (up_proj): lora.Linear4bit(
       (base_layer): Linear4bit(in_features=4096, out_features=14336, bias=False)
       (lora_dropout): ModuleDict(
         (default): Identity()
       )
       (lora_A): ModuleDict(
         (default): Linear(in_features=4096, out_features=64, bias=False)
       )
       (lora_B): ModuleDict(
         (default): Linear(in_features=64, out_features=14336, bias=False)
       )
       (lora_embedding_A): ParameterDict()
       (lora_embedding_B): ParameterDict()
       (lora_magnitude_vector): ModuleDict()
     )
     (down_proj): lora.Linear4bit(
       (base_layer): Linear4bit(in_features=14336, out_features=4096, bias=False)
       (lora_dropout): ModuleDict(
         (default): Identity()
       )
       (lora_A): ModuleDict(
         (default): Linear(in_features=14336, out_features=64, bias=False)
       )
       (lora_B): ModuleDict(
         (default): Linear(in_features=64, out_features=4096, bias=False)
       )
       (lora_embedding_A): ParameterDict()
       (lora_embedding_B): ParameterDict()
       (lora_magnitude_vector): ModuleDict()
     )
     (act_fn): SiLU()
   )
   (input_layernorm): LlamaRMSNorm((4096,), eps=1e-05)
   (post_attention_layernorm): LlamaRMSNorm((4096,), eps=1e-05)
 ),
 LlamaAttention(
   (q_proj): lora.Linear4bit(
     (base_layer): Linear4bit(in_features=4096, out_features=4096, bias=False)
     (lora_dropout): ModuleDict(
       (default): Identity()
     )
     (lora_A): ModuleDict(
       (default): Linear(in_features=4096, out_features=64, bias=False)
     )
     (lora_B): ModuleDict(
       (default): Linear(in_features=64, out_features=4096, bias=False)
     )
     (lora_embedding_A): ParameterDict()
     (lora_embedding_B): ParameterDict()
     (lora_magnitude_vector): ModuleDict()
   )
   (k_proj): lora.Linear4bit(
     (base_layer): Linear4bit(in_features=4096, out_features=1024, bias=False)
     (lora_dropout): ModuleDict(
       (default): Identity()
     )
     (lora_A): ModuleDict(
       (default): Linear(in_features=4096, out_features=64, bias=False)
     )
     (lora_B): ModuleDict(
       (default): Linear(in_features=64, out_features=1024, bias=False)
     )
     (lora_embedding_A): ParameterDict()
     (lora_embedding_B): ParameterDict()
     (lora_magnitude_vector): ModuleDict()
   )
   (v_proj): lora.Linear4bit(
     (base_layer): Linear4bit(in_features=4096, out_features=1024, bias=False)
     (lora_dropout): ModuleDict(
       (default): Identity()
     )
     (lora_A): ModuleDict(
       (default): Linear(in_features=4096, out_features=64, bias=False)
     )
     (lora_B): ModuleDict(
       (default): Linear(in_features=64, out_features=1024, bias=False)
     )
     (lora_embedding_A): ParameterDict()
     (lora_embedding_B): ParameterDict()
     (lora_magnitude_vector): ModuleDict()
   )
   (o_proj): lora.Linear4bit(
     (base_layer): Linear4bit(in_features=4096, out_features=4096, bias=False)
     (lora_dropout): ModuleDict(
       (default): Identity()
     )
     (lora_A): ModuleDict(
       (default): Linear(in_features=4096, out_features=64, bias=False)
     )
     (lora_B): ModuleDict(
       (default): Linear(in_features=64, out_features=4096, bias=False)
     )
     (lora_embedding_A): ParameterDict()
     (lora_embedding_B): ParameterDict()
     (lora_magnitude_vector): ModuleDict()
   )
 ),
 lora.Linear4bit(
   (base_layer): Linear4bit(in_features=4096, out_features=4096, bias=False)
   (lora_dropout): ModuleDict(
     (default): Identity()
   )
   (lora_A): ModuleDict(
     (default): Linear(in_features=4096, out_features=64, bias=False)
   )
   (lora_B): ModuleDict(
     (default): Linear(in_features=64, out_features=4096, bias=False)
   )
   (lora_embedding_A): ParameterDict()
   (lora_embedding_B): ParameterDict()
   (lora_magnitude_vector): ModuleDict()
 ),
 Linear4bit(in_features=4096, out_features=4096, bias=False),
 ModuleDict(
   (default): Identity()
 ),
 Identity(),
 ModuleDict(
   (default): Linear(in_features=4096, out_features=64, bias=False)
 ),
 Linear(in_features=4096, out_features=64, bias=False),
 ModuleDict(
   (default): Linear(in_features=64, out_features=4096, bias=False)
 ),
 Linear(in_features=64, out_features=4096, bias=False),
 ParameterDict(),
 ParameterDict(),
 ModuleDict(),
 lora.Linear4bit(
   (base_layer): Linear4bit(in_features=4096, out_features=1024, bias=False)
   (lora_dropout): ModuleDict(
     (default): Identity()
   )
   (lora_A): ModuleDict(
     (default): Linear(in_features=4096, out_features=64, bias=False)
   )
   (lora_B): ModuleDict(
     (default): Linear(in_features=64, out_features=1024, bias=False)
   )
   (lora_embedding_A): ParameterDict()
   (lora_embedding_B): ParameterDict()
   (lora_magnitude_vector): ModuleDict()
 ),
 Linear4bit(in_features=4096, out_features=1024, bias=False),
 ModuleDict(
   (default): Identity()
 ),
 Identity(),
 ModuleDict(
   (default): Linear(in_features=4096, out_features=64, bias=False)
 ),
 Linear(in_features=4096, out_features=64, bias=False),
 ModuleDict(
   (default): Linear(in_features=64, out_features=1024, bias=False)
 ),
 Linear(in_features=64, out_features=1024, bias=False),
 ParameterDict(),
 ParameterDict(),
 ModuleDict(),
 lora.Linear4bit(
   (base_layer): Linear4bit(in_features=4096, out_features=1024, bias=False)
   (lora_dropout): ModuleDict(
     (default): Identity()
   )
   (lora_A): ModuleDict(
     (default): Linear(in_features=4096, out_features=64, bias=False)
   )
   (lora_B): ModuleDict(
     (default): Linear(in_features=64, out_features=1024, bias=False)
   )
   (lora_embedding_A): ParameterDict()
   (lora_embedding_B): ParameterDict()
   (lora_magnitude_vector): ModuleDict()
 ),
 Linear4bit(in_features=4096, out_features=1024, bias=False),
 ModuleDict(
   (default): Identity()
 ),
 Identity(),
 ModuleDict(
   (default): Linear(in_features=4096, out_features=64, bias=False)
 ),
 Linear(in_features=4096, out_features=64, bias=False),
 ModuleDict(
   (default): Linear(in_features=64, out_features=1024, bias=False)
 ),
 Linear(in_features=64, out_features=1024, bias=False),
 ParameterDict(),
 ParameterDict(),
 ModuleDict(),
 lora.Linear4bit(
   (base_layer): Linear4bit(in_features=4096, out_features=4096, bias=False)
   (lora_dropout): ModuleDict(
     (default): Identity()
   )
   (lora_A): ModuleDict(
     (default): Linear(in_features=4096, out_features=64, bias=False)
   )
   (lora_B): ModuleDict(
     (default): Linear(in_features=64, out_features=4096, bias=False)
   )
   (lora_embedding_A): ParameterDict()
   (lora_embedding_B): ParameterDict()
   (lora_magnitude_vector): ModuleDict()
 ),
 Linear4bit(in_features=4096, out_features=4096, bias=False),
 ModuleDict(
   (default): Identity()
 ),
 Identity(),
 ModuleDict(
   (default): Linear(in_features=4096, out_features=64, bias=False)
 ),
 Linear(in_features=4096, out_features=64, bias=False),
 ModuleDict(
   (default): Linear(in_features=64, out_features=4096, bias=False)
 ),
 Linear(in_features=64, out_features=4096, bias=False),
 ParameterDict(),
 ParameterDict(),
 ModuleDict(),
 LlamaMLP(
   (gate_proj): lora.Linear4bit(
     (base_layer): Linear4bit(in_features=4096, out_features=14336, bias=False)
     (lora_dropout): ModuleDict(
       (default): Identity()
     )
     (lora_A): ModuleDict(
       (default): Linear(in_features=4096, out_features=64, bias=False)
     )
     (lora_B): ModuleDict(
       (default): Linear(in_features=64, out_features=14336, bias=False)
     )
     (lora_embedding_A): ParameterDict()
     (lora_embedding_B): ParameterDict()
     (lora_magnitude_vector): ModuleDict()
   )
   (up_proj): lora.Linear4bit(
     (base_layer): Linear4bit(in_features=4096, out_features=14336, bias=False)
     (lora_dropout): ModuleDict(
       (default): Identity()
     )
     (lora_A): ModuleDict(
       (default): Linear(in_features=4096, out_features=64, bias=False)
     )
     (lora_B): ModuleDict(
       (default): Linear(in_features=64, out_features=14336, bias=False)
     )
     (lora_embedding_A): ParameterDict()
     (lora_embedding_B): ParameterDict()
     (lora_magnitude_vector): ModuleDict()
   )
   (down_proj): lora.Linear4bit(
     (base_layer): Linear4bit(in_features=14336, out_features=4096, bias=False)
     (lora_dropout): ModuleDict(
       (default): Identity()
     )
     (lora_A): ModuleDict(
       (default): Linear(in_features=14336, out_features=64, bias=False)
     )
     (lora_B): ModuleDict(
       (default): Linear(in_features=64, out_features=4096, bias=False)
     )
     (lora_embedding_A): ParameterDict()
     (lora_embedding_B): ParameterDict()
     (lora_magnitude_vector): ModuleDict()
   )
   (act_fn): SiLU()
 ),
 lora.Linear4bit(
   (base_layer): Linear4bit(in_features=4096, out_features=14336, bias=False)
   (lora_dropout): ModuleDict(
     (default): Identity()
   )
   (lora_A): ModuleDict(
     (default): Linear(in_features=4096, out_features=64, bias=False)
   )
   (lora_B): ModuleDict(
     (default): Linear(in_features=64, out_features=14336, bias=False)
   )
   (lora_embedding_A): ParameterDict()
   (lora_embedding_B): ParameterDict()
   (lora_magnitude_vector): ModuleDict()
 ),
 Linear4bit(in_features=4096, out_features=14336, bias=False),
 ModuleDict(
   (default): Identity()
 ),
 Identity(),
 ModuleDict(
   (default): Linear(in_features=4096, out_features=64, bias=False)
 ),
 Linear(in_features=4096, out_features=64, bias=False),
 ModuleDict(
   (default): Linear(in_features=64, out_features=14336, bias=False)
 ),
 Linear(in_features=64, out_features=14336, bias=False),
 ParameterDict(),
 ParameterDict(),
 ModuleDict(),
 lora.Linear4bit(
   (base_layer): Linear4bit(in_features=4096, out_features=14336, bias=False)
   (lora_dropout): ModuleDict(
     (default): Identity()
   )
   (lora_A): ModuleDict(
     (default): Linear(in_features=4096, out_features=64, bias=False)
   )
   (lora_B): ModuleDict(
     (default): Linear(in_features=64, out_features=14336, bias=False)
   )
   (lora_embedding_A): ParameterDict()
   (lora_embedding_B): ParameterDict()
   (lora_magnitude_vector): ModuleDict()
 ),
 Linear4bit(in_features=4096, out_features=14336, bias=False),
 ModuleDict(
   (default): Identity()
 ),
 Identity(),
 ModuleDict(
   (default): Linear(in_features=4096, out_features=64, bias=False)
 ),
 Linear(in_features=4096, out_features=64, bias=False),
 ModuleDict(
   (default): Linear(in_features=64, out_features=14336, bias=False)
 ),
 Linear(in_features=64, out_features=14336, bias=False),
 ParameterDict(),
 ParameterDict(),
 ModuleDict(),
 lora.Linear4bit(
   (base_layer): Linear4bit(in_features=14336, out_features=4096, bias=False)
   (lora_dropout): ModuleDict(
     (default): Identity()
   )
   (lora_A): ModuleDict(
     (default): Linear(in_features=14336, out_features=64, bias=False)
   )
   (lora_B): ModuleDict(
     (default): Linear(in_features=64, out_features=4096, bias=False)
   )
   (lora_embedding_A): ParameterDict()
   (lora_embedding_B): ParameterDict()
   (lora_magnitude_vector): ModuleDict()
 ),
 Linear4bit(in_features=14336, out_features=4096, bias=False),
 ModuleDict(
   (default): Identity()
 ),
 Identity(),
 ModuleDict(
   (default): Linear(in_features=14336, out_features=64, bias=False)
 ),
 Linear(in_features=14336, out_features=64, bias=False),
 ModuleDict(
   (default): Linear(in_features=64, out_features=4096, bias=False)
 ),
 Linear(in_features=64, out_features=4096, bias=False),
 ParameterDict(),
 ParameterDict(),
 ModuleDict(),
 SiLU(),
 LlamaRMSNorm((4096,), eps=1e-05),
 LlamaRMSNorm((4096,), eps=1e-05),
 LlamaDecoderLayer(
   (self_attn): LlamaAttention(
     (q_proj): lora.Linear4bit(
       (base_layer): Linear4bit(in_features=4096, out_features=4096, bias=False)
       (lora_dropout): ModuleDict(
         (default): Identity()
       )
       (lora_A): ModuleDict(
         (default): Linear(in_features=4096, out_features=64, bias=False)
       )
       (lora_B): ModuleDict(
         (default): Linear(in_features=64, out_features=4096, bias=False)
       )
       (lora_embedding_A): ParameterDict()
       (lora_embedding_B): ParameterDict()
       (lora_magnitude_vector): ModuleDict()
     )
     (k_proj): lora.Linear4bit(
       (base_layer): Linear4bit(in_features=4096, out_features=1024, bias=False)
       (lora_dropout): ModuleDict(
         (default): Identity()
       )
       (lora_A): ModuleDict(
         (default): Linear(in_features=4096, out_features=64, bias=False)
       )
       (lora_B): ModuleDict(
         (default): Linear(in_features=64, out_features=1024, bias=False)
       )
       (lora_embedding_A): ParameterDict()
       (lora_embedding_B): ParameterDict()
       (lora_magnitude_vector): ModuleDict()
     )
     (v_proj): lora.Linear4bit(
       (base_layer): Linear4bit(in_features=4096, out_features=1024, bias=False)
       (lora_dropout): ModuleDict(
         (default): Identity()
       )
       (lora_A): ModuleDict(
         (default): Linear(in_features=4096, out_features=64, bias=False)
       )
       (lora_B): ModuleDict(
         (default): Linear(in_features=64, out_features=1024, bias=False)
       )
       (lora_embedding_A): ParameterDict()
       (lora_embedding_B): ParameterDict()
       (lora_magnitude_vector): ModuleDict()
     )
     (o_proj): lora.Linear4bit(
       (base_layer): Linear4bit(in_features=4096, out_features=4096, bias=False)
       (lora_dropout): ModuleDict(
         (default): Identity()
       )
       (lora_A): ModuleDict(
         (default): Linear(in_features=4096, out_features=64, bias=False)
       )
       (lora_B): ModuleDict(
         (default): Linear(in_features=64, out_features=4096, bias=False)
       )
       (lora_embedding_A): ParameterDict()
       (lora_embedding_B): ParameterDict()
       (lora_magnitude_vector): ModuleDict()
     )
   )
   (mlp): LlamaMLP(
     (gate_proj): lora.Linear4bit(
       (base_layer): Linear4bit(in_features=4096, out_features=14336, bias=False)
       (lora_dropout): ModuleDict(
         (default): Identity()
       )
       (lora_A): ModuleDict(
         (default): Linear(in_features=4096, out_features=64, bias=False)
       )
       (lora_B): ModuleDict(
         (default): Linear(in_features=64, out_features=14336, bias=False)
       )
       (lora_embedding_A): ParameterDict()
       (lora_embedding_B): ParameterDict()
       (lora_magnitude_vector): ModuleDict()
     )
     (up_proj): lora.Linear4bit(
       (base_layer): Linear4bit(in_features=4096, out_features=14336, bias=False)
       (lora_dropout): ModuleDict(
         (default): Identity()
       )
       (lora_A): ModuleDict(
         (default): Linear(in_features=4096, out_features=64, bias=False)
       )
       (lora_B): ModuleDict(
         (default): Linear(in_features=64, out_features=14336, bias=False)
       )
       (lora_embedding_A): ParameterDict()
       (lora_embedding_B): ParameterDict()
       (lora_magnitude_vector): ModuleDict()
     )
     (down_proj): lora.Linear4bit(
       (base_layer): Linear4bit(in_features=14336, out_features=4096, bias=False)
       (lora_dropout): ModuleDict(
         (default): Identity()
       )
       (lora_A): ModuleDict(
         (default): Linear(in_features=14336, out_features=64, bias=False)
       )
       (lora_B): ModuleDict(
         (default): Linear(in_features=64, out_features=4096, bias=False)
       )
       (lora_embedding_A): ParameterDict()
       (lora_embedding_B): ParameterDict()
       (lora_magnitude_vector): ModuleDict()
     )
     (act_fn): SiLU()
   )
   (input_layernorm): LlamaRMSNorm((4096,), eps=1e-05)
   (post_attention_layernorm): LlamaRMSNorm((4096,), eps=1e-05)
 ),
 LlamaAttention(
   (q_proj): lora.Linear4bit(
     (base_layer): Linear4bit(in_features=4096, out_features=4096, bias=False)
     (lora_dropout): ModuleDict(
       (default): Identity()
     )
     (lora_A): ModuleDict(
       (default): Linear(in_features=4096, out_features=64, bias=False)
     )
     (lora_B): ModuleDict(
       (default): Linear(in_features=64, out_features=4096, bias=False)
     )
     (lora_embedding_A): ParameterDict()
     (lora_embedding_B): ParameterDict()
     (lora_magnitude_vector): ModuleDict()
   )
   (k_proj): lora.Linear4bit(
     (base_layer): Linear4bit(in_features=4096, out_features=1024, bias=False)
     (lora_dropout): ModuleDict(
       (default): Identity()
     )
     (lora_A): ModuleDict(
       (default): Linear(in_features=4096, out_features=64, bias=False)
     )
     (lora_B): ModuleDict(
       (default): Linear(in_features=64, out_features=1024, bias=False)
     )
     (lora_embedding_A): ParameterDict()
     (lora_embedding_B): ParameterDict()
     (lora_magnitude_vector): ModuleDict()
   )
   (v_proj): lora.Linear4bit(
     (base_layer): Linear4bit(in_features=4096, out_features=1024, bias=False)
     (lora_dropout): ModuleDict(
       (default): Identity()
     )
     (lora_A): ModuleDict(
       (default): Linear(in_features=4096, out_features=64, bias=False)
     )
     (lora_B): ModuleDict(
       (default): Linear(in_features=64, out_features=1024, bias=False)
     )
     (lora_embedding_A): ParameterDict()
     (lora_embedding_B): ParameterDict()
     (lora_magnitude_vector): ModuleDict()
   )
   (o_proj): lora.Linear4bit(
     (base_layer): Linear4bit(in_features=4096, out_features=4096, bias=False)
     (lora_dropout): ModuleDict(
       (default): Identity()
     )
     (lora_A): ModuleDict(
       (default): Linear(in_features=4096, out_features=64, bias=False)
     )
     (lora_B): ModuleDict(
       (default): Linear(in_features=64, out_features=4096, bias=False)
     )
     (lora_embedding_A): ParameterDict()
     (lora_embedding_B): ParameterDict()
     (lora_magnitude_vector): ModuleDict()
   )
 ),
 lora.Linear4bit(
   (base_layer): Linear4bit(in_features=4096, out_features=4096, bias=False)
   (lora_dropout): ModuleDict(
     (default): Identity()
   )
   (lora_A): ModuleDict(
     (default): Linear(in_features=4096, out_features=64, bias=False)
   )
   (lora_B): ModuleDict(
     (default): Linear(in_features=64, out_features=4096, bias=False)
   )
   (lora_embedding_A): ParameterDict()
   (lora_embedding_B): ParameterDict()
   (lora_magnitude_vector): ModuleDict()
 ),
 Linear4bit(in_features=4096, out_features=4096, bias=False),
 ModuleDict(
   (default): Identity()
 ),
 Identity(),
 ModuleDict(
   (default): Linear(in_features=4096, out_features=64, bias=False)
 ),
 Linear(in_features=4096, out_features=64, bias=False),
 ModuleDict(
   (default): Linear(in_features=64, out_features=4096, bias=False)
 ),
 Linear(in_features=64, out_features=4096, bias=False),
 ParameterDict(),
 ParameterDict(),
 ModuleDict(),
 lora.Linear4bit(
   (base_layer): Linear4bit(in_features=4096, out_features=1024, bias=False)
   (lora_dropout): ModuleDict(
     (default): Identity()
   )
   (lora_A): ModuleDict(
     (default): Linear(in_features=4096, out_features=64, bias=False)
   )
   (lora_B): ModuleDict(
     (default): Linear(in_features=64, out_features=1024, bias=False)
   )
   (lora_embedding_A): ParameterDict()
   (lora_embedding_B): ParameterDict()
   (lora_magnitude_vector): ModuleDict()
 ),
 Linear4bit(in_features=4096, out_features=1024, bias=False),
 ModuleDict(
   (default): Identity()
 ),
 Identity(),
 ModuleDict(
   (default): Linear(in_features=4096, out_features=64, bias=False)
 ),
 Linear(in_features=4096, out_features=64, bias=False),
 ModuleDict(
   (default): Linear(in_features=64, out_features=1024, bias=False)
 ),
 Linear(in_features=64, out_features=1024, bias=False),
 ParameterDict(),
 ParameterDict(),
 ModuleDict(),
 lora.Linear4bit(
   (base_layer): Linear4bit(in_features=4096, out_features=1024, bias=False)
   (lora_dropout): ModuleDict(
     (default): Identity()
   )
   (lora_A): ModuleDict(
     (default): Linear(in_features=4096, out_features=64, bias=False)
   )
   (lora_B): ModuleDict(
     (default): Linear(in_features=64, out_features=1024, bias=False)
   )
   (lora_embedding_A): ParameterDict()
   (lora_embedding_B): ParameterDict()
   (lora_magnitude_vector): ModuleDict()
 ),
 Linear4bit(in_features=4096, out_features=1024, bias=False),
 ModuleDict(
   (default): Identity()
 ),
 Identity(),
 ModuleDict(
   (default): Linear(in_features=4096, out_features=64, bias=False)
 ),
 Linear(in_features=4096, out_features=64, bias=False),
 ModuleDict(
   (default): Linear(in_features=64, out_features=1024, bias=False)
 ),
 Linear(in_features=64, out_features=1024, bias=False),
 ParameterDict(),
 ParameterDict(),
 ModuleDict(),
 lora.Linear4bit(
   (base_layer): Linear4bit(in_features=4096, out_features=4096, bias=False)
   (lora_dropout): ModuleDict(
     (default): Identity()
   )
   (lora_A): ModuleDict(
     (default): Linear(in_features=4096, out_features=64, bias=False)
   )
   (lora_B): ModuleDict(
     (default): Linear(in_features=64, out_features=4096, bias=False)
   )
   (lora_embedding_A): ParameterDict()
   (lora_embedding_B): ParameterDict()
   (lora_magnitude_vector): ModuleDict()
 ),
 Linear4bit(in_features=4096, out_features=4096, bias=False),
 ModuleDict(
   (default): Identity()
 ),
 Identity(),
 ModuleDict(
   (default): Linear(in_features=4096, out_features=64, bias=False)
 ),
 Linear(in_features=4096, out_features=64, bias=False),
 ModuleDict(
   (default): Linear(in_features=64, out_features=4096, bias=False)
 ),
 Linear(in_features=64, out_features=4096, bias=False),
 ParameterDict(),
 ParameterDict(),
 ModuleDict(),
 LlamaMLP(
   (gate_proj): lora.Linear4bit(
     (base_layer): Linear4bit(in_features=4096, out_features=14336, bias=False)
     (lora_dropout): ModuleDict(
       (default): Identity()
     )
     (lora_A): ModuleDict(
       (default): Linear(in_features=4096, out_features=64, bias=False)
     )
     (lora_B): ModuleDict(
       (default): Linear(in_features=64, out_features=14336, bias=False)
     )
     (lora_embedding_A): ParameterDict()
     (lora_embedding_B): ParameterDict()
     (lora_magnitude_vector): ModuleDict()
   )
   (up_proj): lora.Linear4bit(
     (base_layer): Linear4bit(in_features=4096, out_features=14336, bias=False)
     (lora_dropout): ModuleDict(
       (default): Identity()
     )
     (lora_A): ModuleDict(
       (default): Linear(in_features=4096, out_features=64, bias=False)
     )
     (lora_B): ModuleDict(
       (default): Linear(in_features=64, out_features=14336, bias=False)
     )
     (lora_embedding_A): ParameterDict()
     (lora_embedding_B): ParameterDict()
     (lora_magnitude_vector): ModuleDict()
   )
   (down_proj): lora.Linear4bit(
     (base_layer): Linear4bit(in_features=14336, out_features=4096, bias=False)
     (lora_dropout): ModuleDict(
       (default): Identity()
     )
     (lora_A): ModuleDict(
       (default): Linear(in_features=14336, out_features=64, bias=False)
     )
     (lora_B): ModuleDict(
       (default): Linear(in_features=64, out_features=4096, bias=False)
     )
     (lora_embedding_A): ParameterDict()
     (lora_embedding_B): ParameterDict()
     (lora_magnitude_vector): ModuleDict()
   )
   (act_fn): SiLU()
 ),
 lora.Linear4bit(
   (base_layer): Linear4bit(in_features=4096, out_features=14336, bias=False)
   (lora_dropout): ModuleDict(
     (default): Identity()
   )
   (lora_A): ModuleDict(
     (default): Linear(in_features=4096, out_features=64, bias=False)
   )
   (lora_B): ModuleDict(
     (default): Linear(in_features=64, out_features=14336, bias=False)
   )
   (lora_embedding_A): ParameterDict()
   (lora_embedding_B): ParameterDict()
   (lora_magnitude_vector): ModuleDict()
 ),
 Linear4bit(in_features=4096, out_features=14336, bias=False),
 ModuleDict(
   (default): Identity()
 ),
 Identity(),
 ModuleDict(
   (default): Linear(in_features=4096, out_features=64, bias=False)
 ),
 Linear(in_features=4096, out_features=64, bias=False),
 ModuleDict(
   (default): Linear(in_features=64, out_features=14336, bias=False)
 ),
 Linear(in_features=64, out_features=14336, bias=False),
 ParameterDict(),
 ParameterDict(),
 ModuleDict(),
 lora.Linear4bit(
   (base_layer): Linear4bit(in_features=4096, out_features=14336, bias=False)
   (lora_dropout): ModuleDict(
     (default): Identity()
   )
   (lora_A): ModuleDict(
     (default): Linear(in_features=4096, out_features=64, bias=False)
   )
   (lora_B): ModuleDict(
     (default): Linear(in_features=64, out_features=14336, bias=False)
   )
   (lora_embedding_A): ParameterDict()
   (lora_embedding_B): ParameterDict()
   (lora_magnitude_vector): ModuleDict()
 ),
 Linear4bit(in_features=4096, out_features=14336, bias=False),
 ModuleDict(
   (default): Identity()
 ),
 Identity(),
 ModuleDict(
   (default): Linear(in_features=4096, out_features=64, bias=False)
 ),
 Linear(in_features=4096, out_features=64, bias=False),
 ModuleDict(
   (default): Linear(in_features=64, out_features=14336, bias=False)
 ),
 Linear(in_features=64, out_features=14336, bias=False),
 ParameterDict(),
 ParameterDict(),
 ModuleDict(),
 lora.Linear4bit(
   (base_layer): Linear4bit(in_features=14336, out_features=4096, bias=False)
   (lora_dropout): ModuleDict(
     (default): Identity()
   )
   (lora_A): ModuleDict(
     (default): Linear(in_features=14336, out_features=64, bias=False)
   )
   (lora_B): ModuleDict(
     (default): Linear(in_features=64, out_features=4096, bias=False)
   )
   (lora_embedding_A): ParameterDict()
   (lora_embedding_B): ParameterDict()
   (lora_magnitude_vector): ModuleDict()
 ),
 Linear4bit(in_features=14336, out_features=4096, bias=False),
 ModuleDict(
   (default): Identity()
 ),
 Identity(),
 ModuleDict(
   (default): Linear(in_features=14336, out_features=64, bias=False)
 ),
 Linear(in_features=14336, out_features=64, bias=False),
 ModuleDict(
   (default): Linear(in_features=64, out_features=4096, bias=False)
 ),
 Linear(in_features=64, out_features=4096, bias=False),
 ParameterDict(),
 ParameterDict(),
 ModuleDict(),
 SiLU(),
 LlamaRMSNorm((4096,), eps=1e-05),
 LlamaRMSNorm((4096,), eps=1e-05),
 LlamaDecoderLayer(
   (self_attn): LlamaAttention(
     (q_proj): lora.Linear4bit(
       (base_layer): Linear4bit(in_features=4096, out_features=4096, bias=False)
       (lora_dropout): ModuleDict(
         (default): Identity()
       )
       (lora_A): ModuleDict(
         (default): Linear(in_features=4096, out_features=64, bias=False)
       )
       (lora_B): ModuleDict(
         (default): Linear(in_features=64, out_features=4096, bias=False)
       )
       (lora_embedding_A): ParameterDict()
       (lora_embedding_B): ParameterDict()
       (lora_magnitude_vector): ModuleDict()
     )
     (k_proj): lora.Linear4bit(
       (base_layer): Linear4bit(in_features=4096, out_features=1024, bias=False)
       (lora_dropout): ModuleDict(
         (default): Identity()
       )
       (lora_A): ModuleDict(
         (default): Linear(in_features=4096, out_features=64, bias=False)
       )
       (lora_B): ModuleDict(
         (default): Linear(in_features=64, out_features=1024, bias=False)
       )
       (lora_embedding_A): ParameterDict()
       (lora_embedding_B): ParameterDict()
       (lora_magnitude_vector): ModuleDict()
     )
     (v_proj): lora.Linear4bit(
       (base_layer): Linear4bit(in_features=4096, out_features=1024, bias=False)
       (lora_dropout): ModuleDict(
         (default): Identity()
       )
       (lora_A): ModuleDict(
         (default): Linear(in_features=4096, out_features=64, bias=False)
       )
       (lora_B): ModuleDict(
         (default): Linear(in_features=64, out_features=1024, bias=False)
       )
       (lora_embedding_A): ParameterDict()
       (lora_embedding_B): ParameterDict()
       (lora_magnitude_vector): ModuleDict()
     )
     (o_proj): lora.Linear4bit(
       (base_layer): Linear4bit(in_features=4096, out_features=4096, bias=False)
       (lora_dropout): ModuleDict(
         (default): Identity()
       )
       (lora_A): ModuleDict(
         (default): Linear(in_features=4096, out_features=64, bias=False)
       )
       (lora_B): ModuleDict(
         (default): Linear(in_features=64, out_features=4096, bias=False)
       )
       (lora_embedding_A): ParameterDict()
       (lora_embedding_B): ParameterDict()
       (lora_magnitude_vector): ModuleDict()
     )
   )
   (mlp): LlamaMLP(
     (gate_proj): lora.Linear4bit(
       (base_layer): Linear4bit(in_features=4096, out_features=14336, bias=False)
       (lora_dropout): ModuleDict(
         (default): Identity()
       )
       (lora_A): ModuleDict(
         (default): Linear(in_features=4096, out_features=64, bias=False)
       )
       (lora_B): ModuleDict(
         (default): Linear(in_features=64, out_features=14336, bias=False)
       )
       (lora_embedding_A): ParameterDict()
       (lora_embedding_B): ParameterDict()
       (lora_magnitude_vector): ModuleDict()
     )
     (up_proj): lora.Linear4bit(
       (base_layer): Linear4bit(in_features=4096, out_features=14336, bias=False)
       (lora_dropout): ModuleDict(
         (default): Identity()
       )
       (lora_A): ModuleDict(
         (default): Linear(in_features=4096, out_features=64, bias=False)
       )
       (lora_B): ModuleDict(
         (default): Linear(in_features=64, out_features=14336, bias=False)
       )
       (lora_embedding_A): ParameterDict()
       (lora_embedding_B): ParameterDict()
       (lora_magnitude_vector): ModuleDict()
     )
     (down_proj): lora.Linear4bit(
       (base_layer): Linear4bit(in_features=14336, out_features=4096, bias=False)
       (lora_dropout): ModuleDict(
         (default): Identity()
       )
       (lora_A): ModuleDict(
         (default): Linear(in_features=14336, out_features=64, bias=False)
       )
       (lora_B): ModuleDict(
         (default): Linear(in_features=64, out_features=4096, bias=False)
       )
       (lora_embedding_A): ParameterDict()
       (lora_embedding_B): ParameterDict()
       (lora_magnitude_vector): ModuleDict()
     )
     (act_fn): SiLU()
   )
   (input_layernorm): LlamaRMSNorm((4096,), eps=1e-05)
   (post_attention_layernorm): LlamaRMSNorm((4096,), eps=1e-05)
 ),
 LlamaAttention(
   (q_proj): lora.Linear4bit(
     (base_layer): Linear4bit(in_features=4096, out_features=4096, bias=False)
     (lora_dropout): ModuleDict(
       (default): Identity()
     )
     (lora_A): ModuleDict(
       (default): Linear(in_features=4096, out_features=64, bias=False)
     )
     (lora_B): ModuleDict(
       (default): Linear(in_features=64, out_features=4096, bias=False)
     )
     (lora_embedding_A): ParameterDict()
     (lora_embedding_B): ParameterDict()
     (lora_magnitude_vector): ModuleDict()
   )
   (k_proj): lora.Linear4bit(
     (base_layer): Linear4bit(in_features=4096, out_features=1024, bias=False)
     (lora_dropout): ModuleDict(
       (default): Identity()
     )
     (lora_A): ModuleDict(
       (default): Linear(in_features=4096, out_features=64, bias=False)
     )
     (lora_B): ModuleDict(
       (default): Linear(in_features=64, out_features=1024, bias=False)
     )
     (lora_embedding_A): ParameterDict()
     (lora_embedding_B): ParameterDict()
     (lora_magnitude_vector): ModuleDict()
   )
   (v_proj): lora.Linear4bit(
     (base_layer): Linear4bit(in_features=4096, out_features=1024, bias=False)
     (lora_dropout): ModuleDict(
       (default): Identity()
     )
     (lora_A): ModuleDict(
       (default): Linear(in_features=4096, out_features=64, bias=False)
     )
     (lora_B): ModuleDict(
       (default): Linear(in_features=64, out_features=1024, bias=False)
     )
     (lora_embedding_A): ParameterDict()
     (lora_embedding_B): ParameterDict()
     (lora_magnitude_vector): ModuleDict()
   )
   (o_proj): lora.Linear4bit(
     (base_layer): Linear4bit(in_features=4096, out_features=4096, bias=False)
     (lora_dropout): ModuleDict(
       (default): Identity()
     )
     (lora_A): ModuleDict(
       (default): Linear(in_features=4096, out_features=64, bias=False)
     )
     (lora_B): ModuleDict(
       (default): Linear(in_features=64, out_features=4096, bias=False)
     )
     (lora_embedding_A): ParameterDict()
     (lora_embedding_B): ParameterDict()
     (lora_magnitude_vector): ModuleDict()
   )
 ),
 lora.Linear4bit(
   (base_layer): Linear4bit(in_features=4096, out_features=4096, bias=False)
   (lora_dropout): ModuleDict(
     (default): Identity()
   )
   (lora_A): ModuleDict(
     (default): Linear(in_features=4096, out_features=64, bias=False)
   )
   (lora_B): ModuleDict(
     (default): Linear(in_features=64, out_features=4096, bias=False)
   )
   (lora_embedding_A): ParameterDict()
   (lora_embedding_B): ParameterDict()
   (lora_magnitude_vector): ModuleDict()
 ),
 Linear4bit(in_features=4096, out_features=4096, bias=False),
 ModuleDict(
   (default): Identity()
 ),
 Identity(),
 ModuleDict(
   (default): Linear(in_features=4096, out_features=64, bias=False)
 ),
 Linear(in_features=4096, out_features=64, bias=False),
 ModuleDict(
   (default): Linear(in_features=64, out_features=4096, bias=False)
 ),
 Linear(in_features=64, out_features=4096, bias=False),
 ParameterDict(),
 ParameterDict(),
 ModuleDict(),
 lora.Linear4bit(
   (base_layer): Linear4bit(in_features=4096, out_features=1024, bias=False)
   (lora_dropout): ModuleDict(
     (default): Identity()
   )
   (lora_A): ModuleDict(
     (default): Linear(in_features=4096, out_features=64, bias=False)
   )
   (lora_B): ModuleDict(
     (default): Linear(in_features=64, out_features=1024, bias=False)
   )
   (lora_embedding_A): ParameterDict()
   (lora_embedding_B): ParameterDict()
   (lora_magnitude_vector): ModuleDict()
 ),
 Linear4bit(in_features=4096, out_features=1024, bias=False),
 ModuleDict(
   (default): Identity()
 ),
 Identity(),
 ModuleDict(
   (default): Linear(in_features=4096, out_features=64, bias=False)
 ),
 Linear(in_features=4096, out_features=64, bias=False),
 ModuleDict(
   (default): Linear(in_features=64, out_features=1024, bias=False)
 ),
 Linear(in_features=64, out_features=1024, bias=False),
 ParameterDict(),
 ParameterDict(),
 ModuleDict(),
 lora.Linear4bit(
   (base_layer): Linear4bit(in_features=4096, out_features=1024, bias=False)
   (lora_dropout): ModuleDict(
     (default): Identity()
   )
   (lora_A): ModuleDict(
     (default): Linear(in_features=4096, out_features=64, bias=False)
   )
   (lora_B): ModuleDict(
     (default): Linear(in_features=64, out_features=1024, bias=False)
   )
   (lora_embedding_A): ParameterDict()
   (lora_embedding_B): ParameterDict()
   (lora_magnitude_vector): ModuleDict()
 ),
 Linear4bit(in_features=4096, out_features=1024, bias=False),
 ModuleDict(
   (default): Identity()
 ),
 Identity(),
 ModuleDict(
   (default): Linear(in_features=4096, out_features=64, bias=False)
 ),
 Linear(in_features=4096, out_features=64, bias=False),
 ModuleDict(
   (default): Linear(in_features=64, out_features=1024, bias=False)
 ),
 Linear(in_features=64, out_features=1024, bias=False),
 ParameterDict(),
 ParameterDict(),
 ModuleDict(),
 lora.Linear4bit(
   (base_layer): Linear4bit(in_features=4096, out_features=4096, bias=False)
   (lora_dropout): ModuleDict(
     (default): Identity()
   )
   (lora_A): ModuleDict(
     (default): Linear(in_features=4096, out_features=64, bias=False)
   )
   (lora_B): ModuleDict(
     (default): Linear(in_features=64, out_features=4096, bias=False)
   )
   (lora_embedding_A): ParameterDict()
   (lora_embedding_B): ParameterDict()
   (lora_magnitude_vector): ModuleDict()
 ),
 Linear4bit(in_features=4096, out_features=4096, bias=False),
 ModuleDict(
   (default): Identity()
 ),
 Identity(),
 ModuleDict(
   (default): Linear(in_features=4096, out_features=64, bias=False)
 ),
 Linear(in_features=4096, out_features=64, bias=False),
 ModuleDict(
   (default): Linear(in_features=64, out_features=4096, bias=False)
 ),
 Linear(in_features=64, out_features=4096, bias=False),
 ParameterDict(),
 ParameterDict(),
 ModuleDict(),
 LlamaMLP(
   (gate_proj): lora.Linear4bit(
     (base_layer): Linear4bit(in_features=4096, out_features=14336, bias=False)
     (lora_dropout): ModuleDict(
       (default): Identity()
     )
     (lora_A): ModuleDict(
       (default): Linear(in_features=4096, out_features=64, bias=False)
     )
     (lora_B): ModuleDict(
       (default): Linear(in_features=64, out_features=14336, bias=False)
     )
     (lora_embedding_A): ParameterDict()
     (lora_embedding_B): ParameterDict()
     (lora_magnitude_vector): ModuleDict()
   )
   (up_proj): lora.Linear4bit(
     (base_layer): Linear4bit(in_features=4096, out_features=14336, bias=False)
     (lora_dropout): ModuleDict(
       (default): Identity()
     )
     (lora_A): ModuleDict(
       (default): Linear(in_features=4096, out_features=64, bias=False)
     )
     (lora_B): ModuleDict(
       (default): Linear(in_features=64, out_features=14336, bias=False)
     )
     (lora_embedding_A): ParameterDict()
     (lora_embedding_B): ParameterDict()
     (lora_magnitude_vector): ModuleDict()
   )
   (down_proj): lora.Linear4bit(
     (base_layer): Linear4bit(in_features=14336, out_features=4096, bias=False)
     (lora_dropout): ModuleDict(
       (default): Identity()
     )
     (lora_A): ModuleDict(
       (default): Linear(in_features=14336, out_features=64, bias=False)
     )
     (lora_B): ModuleDict(
       (default): Linear(in_features=64, out_features=4096, bias=False)
     )
     (lora_embedding_A): ParameterDict()
     (lora_embedding_B): ParameterDict()
     (lora_magnitude_vector): ModuleDict()
   )
   (act_fn): SiLU()
 ),
 lora.Linear4bit(
   (base_layer): Linear4bit(in_features=4096, out_features=14336, bias=False)
   (lora_dropout): ModuleDict(
     (default): Identity()
   )
   (lora_A): ModuleDict(
     (default): Linear(in_features=4096, out_features=64, bias=False)
   )
   (lora_B): ModuleDict(
     (default): Linear(in_features=64, out_features=14336, bias=False)
   )
   (lora_embedding_A): ParameterDict()
   (lora_embedding_B): ParameterDict()
   (lora_magnitude_vector): ModuleDict()
 ),
 Linear4bit(in_features=4096, out_features=14336, bias=False),
 ModuleDict(
   (default): Identity()
 ),
 Identity(),
 ModuleDict(
   (default): Linear(in_features=4096, out_features=64, bias=False)
 ),
 Linear(in_features=4096, out_features=64, bias=False),
 ModuleDict(
   (default): Linear(in_features=64, out_features=14336, bias=False)
 ),
 Linear(in_features=64, out_features=14336, bias=False),
 ParameterDict(),
 ParameterDict(),
 ModuleDict(),
 lora.Linear4bit(
   (base_layer): Linear4bit(in_features=4096, out_features=14336, bias=False)
   (lora_dropout): ModuleDict(
     (default): Identity()
   )
   (lora_A): ModuleDict(
     (default): Linear(in_features=4096, out_features=64, bias=False)
   )
   (lora_B): ModuleDict(
     (default): Linear(in_features=64, out_features=14336, bias=False)
   )
   (lora_embedding_A): ParameterDict()
   (lora_embedding_B): ParameterDict()
   (lora_magnitude_vector): ModuleDict()
 ),
 Linear4bit(in_features=4096, out_features=14336, bias=False),
 ModuleDict(
   (default): Identity()
 ),
 Identity(),
 ModuleDict(
   (default): Linear(in_features=4096, out_features=64, bias=False)
 ),
 Linear(in_features=4096, out_features=64, bias=False),
 ModuleDict(
   (default): Linear(in_features=64, out_features=14336, bias=False)
 ),
 Linear(in_features=64, out_features=14336, bias=False),
 ParameterDict(),
 ParameterDict(),
 ModuleDict(),
 lora.Linear4bit(
   (base_layer): Linear4bit(in_features=14336, out_features=4096, bias=False)
   (lora_dropout): ModuleDict(
     (default): Identity()
   )
   (lora_A): ModuleDict(
     (default): Linear(in_features=14336, out_features=64, bias=False)
   )
   (lora_B): ModuleDict(
     (default): Linear(in_features=64, out_features=4096, bias=False)
   )
   (lora_embedding_A): ParameterDict()
   (lora_embedding_B): ParameterDict()
   (lora_magnitude_vector): ModuleDict()
 ),
 Linear4bit(in_features=14336, out_features=4096, bias=False),
 ModuleDict(
   (default): Identity()
 ),
 Identity(),
 ModuleDict(
   (default): Linear(in_features=14336, out_features=64, bias=False)
 ),
 Linear(in_features=14336, out_features=64, bias=False),
 ModuleDict(
   (default): Linear(in_features=64, out_features=4096, bias=False)
 ),
 Linear(in_features=64, out_features=4096, bias=False),
 ParameterDict(),
 ParameterDict(),
 ModuleDict(),
 SiLU(),
 LlamaRMSNorm((4096,), eps=1e-05),
 LlamaRMSNorm((4096,), eps=1e-05),
 LlamaDecoderLayer(
   (self_attn): LlamaAttention(
     (q_proj): lora.Linear4bit(
       (base_layer): Linear4bit(in_features=4096, out_features=4096, bias=False)
       (lora_dropout): ModuleDict(
         (default): Identity()
       )
       (lora_A): ModuleDict(
         (default): Linear(in_features=4096, out_features=64, bias=False)
       )
       (lora_B): ModuleDict(
         (default): Linear(in_features=64, out_features=4096, bias=False)
       )
       (lora_embedding_A): ParameterDict()
       (lora_embedding_B): ParameterDict()
       (lora_magnitude_vector): ModuleDict()
     )
     (k_proj): lora.Linear4bit(
       (base_layer): Linear4bit(in_features=4096, out_features=1024, bias=False)
       (lora_dropout): ModuleDict(
         (default): Identity()
       )
       (lora_A): ModuleDict(
         (default): Linear(in_features=4096, out_features=64, bias=False)
       )
       (lora_B): ModuleDict(
         (default): Linear(in_features=64, out_features=1024, bias=False)
       )
       (lora_embedding_A): ParameterDict()
       (lora_embedding_B): ParameterDict()
       (lora_magnitude_vector): ModuleDict()
     )
     (v_proj): lora.Linear4bit(
       (base_layer): Linear4bit(in_features=4096, out_features=1024, bias=False)
       (lora_dropout): ModuleDict(
         (default): Identity()
       )
       (lora_A): ModuleDict(
         (default): Linear(in_features=4096, out_features=64, bias=False)
       )
       (lora_B): ModuleDict(
         (default): Linear(in_features=64, out_features=1024, bias=False)
       )
       (lora_embedding_A): ParameterDict()
       (lora_embedding_B): ParameterDict()
       (lora_magnitude_vector): ModuleDict()
     )
     (o_proj): lora.Linear4bit(
       (base_layer): Linear4bit(in_features=4096, out_features=4096, bias=False)
       (lora_dropout): ModuleDict(
         (default): Identity()
       )
       (lora_A): ModuleDict(
         (default): Linear(in_features=4096, out_features=64, bias=False)
       )
       (lora_B): ModuleDict(
         (default): Linear(in_features=64, out_features=4096, bias=False)
       )
       (lora_embedding_A): ParameterDict()
       (lora_embedding_B): ParameterDict()
       (lora_magnitude_vector): ModuleDict()
     )
   )
   (mlp): LlamaMLP(
     (gate_proj): lora.Linear4bit(
       (base_layer): Linear4bit(in_features=4096, out_features=14336, bias=False)
       (lora_dropout): ModuleDict(
         (default): Identity()
       )
       (lora_A): ModuleDict(
         (default): Linear(in_features=4096, out_features=64, bias=False)
       )
       (lora_B): ModuleDict(
         (default): Linear(in_features=64, out_features=14336, bias=False)
       )
       (lora_embedding_A): ParameterDict()
       (lora_embedding_B): ParameterDict()
       (lora_magnitude_vector): ModuleDict()
     )
     (up_proj): lora.Linear4bit(
       (base_layer): Linear4bit(in_features=4096, out_features=14336, bias=False)
       (lora_dropout): ModuleDict(
         (default): Identity()
       )
       (lora_A): ModuleDict(
         (default): Linear(in_features=4096, out_features=64, bias=False)
       )
       (lora_B): ModuleDict(
         (default): Linear(in_features=64, out_features=14336, bias=False)
       )
       (lora_embedding_A): ParameterDict()
       (lora_embedding_B): ParameterDict()
       (lora_magnitude_vector): ModuleDict()
     )
     (down_proj): lora.Linear4bit(
       (base_layer): Linear4bit(in_features=14336, out_features=4096, bias=False)
       (lora_dropout): ModuleDict(
         (default): Identity()
       )
       (lora_A): ModuleDict(
         (default): Linear(in_features=14336, out_features=64, bias=False)
       )
       (lora_B): ModuleDict(
         (default): Linear(in_features=64, out_features=4096, bias=False)
       )
       (lora_embedding_A): ParameterDict()
       (lora_embedding_B): ParameterDict()
       (lora_magnitude_vector): ModuleDict()
     )
     (act_fn): SiLU()
   )
   (input_layernorm): LlamaRMSNorm((4096,), eps=1e-05)
   (post_attention_layernorm): LlamaRMSNorm((4096,), eps=1e-05)
 ),
 LlamaAttention(
   (q_proj): lora.Linear4bit(
     (base_layer): Linear4bit(in_features=4096, out_features=4096, bias=False)
     (lora_dropout): ModuleDict(
       (default): Identity()
     )
     (lora_A): ModuleDict(
…
   (lora_magnitude_vector): ModuleDict()
 ),
 Linear4bit(in_features=14336, out_features=4096, bias=False),
 ModuleDict(
   (default): Identity()
 ),
 Identity(),
 ModuleDict(
   (default): Linear(in_features=14336, out_features=64, bias=False)
 ),
 Linear(in_features=14336, out_features=64, bias=False),
 ModuleDict(
   (default): Linear(in_features=64, out_features=4096, bias=False)
 ),
 Linear(in_features=64, out_features=4096, bias=False),
 ParameterDict(),
 ParameterDict(),
 ModuleDict(),
 SiLU(),
 LlamaRMSNorm((4096,), eps=1e-05),
 LlamaRMSNorm((4096,), eps=1e-05),
 LlamaDecoderLayer(
   (self_attn): LlamaAttention(
     (q_proj): lora.Linear4bit(
       (base_layer): Linear4bit(in_features=4096, out_features=4096, bias=False)
       (lora_dropout): ModuleDict(
         (default): Identity()
       )
       (lora_A): ModuleDict(
         (default): Linear(in_features=4096, out_features=64, bias=False)
       )
       (lora_B): ModuleDict(
         (default): Linear(in_features=64, out_features=4096, bias=False)
       )
       (lora_embedding_A): ParameterDict()
       (lora_embedding_B): ParameterDict()
       (lora_magnitude_vector): ModuleDict()
     )
     (k_proj): lora.Linear4bit(
       (base_layer): Linear4bit(in_features=4096, out_features=1024, bias=False)
       (lora_dropout): ModuleDict(
         (default): Identity()
       )
       (lora_A): ModuleDict(
         (default): Linear(in_features=4096, out_features=64, bias=False)
       )
       (lora_B): ModuleDict(
         (default): Linear(in_features=64, out_features=1024, bias=False)
       )
       (lora_embedding_A): ParameterDict()
       (lora_embedding_B): ParameterDict()
       (lora_magnitude_vector): ModuleDict()
     )
     (v_proj): lora.Linear4bit(
       (base_layer): Linear4bit(in_features=4096, out_features=1024, bias=False)
       (lora_dropout): ModuleDict(
         (default): Identity()
       )
       (lora_A): ModuleDict(
         (default): Linear(in_features=4096, out_features=64, bias=False)
       )
       (lora_B): ModuleDict(
         (default): Linear(in_features=64, out_features=1024, bias=False)
       )
       (lora_embedding_A): ParameterDict()
       (lora_embedding_B): ParameterDict()
       (lora_magnitude_vector): ModuleDict()
     )
     (o_proj): lora.Linear4bit(
       (base_layer): Linear4bit(in_features=4096, out_features=4096, bias=False)
       (lora_dropout): ModuleDict(
         (default): Identity()
       )
       (lora_A): ModuleDict(
         (default): Linear(in_features=4096, out_features=64, bias=False)
       )
       (lora_B): ModuleDict(
         (default): Linear(in_features=64, out_features=4096, bias=False)
       )
       (lora_embedding_A): ParameterDict()
       (lora_embedding_B): ParameterDict()
       (lora_magnitude_vector): ModuleDict()
     )
   )
   (mlp): LlamaMLP(
     (gate_proj): lora.Linear4bit(
       (base_layer): Linear4bit(in_features=4096, out_features=14336, bias=False)
       (lora_dropout): ModuleDict(
         (default): Identity()
       )
       (lora_A): ModuleDict(
         (default): Linear(in_features=4096, out_features=64, bias=False)
       )
       (lora_B): ModuleDict(
         (default): Linear(in_features=64, out_features=14336, bias=False)
       )
       (lora_embedding_A): ParameterDict()
       (lora_embedding_B): ParameterDict()
       (lora_magnitude_vector): ModuleDict()
     )
     (up_proj): lora.Linear4bit(
       (base_layer): Linear4bit(in_features=4096, out_features=14336, bias=False)
       (lora_dropout): ModuleDict(
         (default): Identity()
       )
       (lora_A): ModuleDict(
         (default): Linear(in_features=4096, out_features=64, bias=False)
       )
       (lora_B): ModuleDict(
         (default): Linear(in_features=64, out_features=14336, bias=False)
       )
       (lora_embedding_A): ParameterDict()
       (lora_embedding_B): ParameterDict()
       (lora_magnitude_vector): ModuleDict()
     )
     (down_proj): lora.Linear4bit(
       (base_layer): Linear4bit(in_features=14336, out_features=4096, bias=False)
       (lora_dropout): ModuleDict(
         (default): Identity()
       )
       (lora_A): ModuleDict(
         (default): Linear(in_features=14336, out_features=64, bias=False)
       )
       (lora_B): ModuleDict(
         (default): Linear(in_features=64, out_features=4096, bias=False)
       )
       (lora_embedding_A): ParameterDict()
       (lora_embedding_B): ParameterDict()
       (lora_magnitude_vector): ModuleDict()
     )
     (act_fn): SiLU()
   )
   (input_layernorm): LlamaRMSNorm((4096,), eps=1e-05)
   (post_attention_layernorm): LlamaRMSNorm((4096,), eps=1e-05)
 ),
 LlamaAttention(
   (q_proj): lora.Linear4bit(
     (base_layer): Linear4bit(in_features=4096, out_features=4096, bias=False)
     (lora_dropout): ModuleDict(
       (default): Identity()
     )
     (lora_A): ModuleDict(
       (default): Linear(in_features=4096, out_features=64, bias=False)
     )
     (lora_B): ModuleDict(
       (default): Linear(in_features=64, out_features=4096, bias=False)
     )
     (lora_embedding_A): ParameterDict()
     (lora_embedding_B): ParameterDict()
     (lora_magnitude_vector): ModuleDict()
   )
   (k_proj): lora.Linear4bit(
     (base_layer): Linear4bit(in_features=4096, out_features=1024, bias=False)
     (lora_dropout): ModuleDict(
       (default): Identity()
     )
     (lora_A): ModuleDict(
       (default): Linear(in_features=4096, out_features=64, bias=False)
     )
     (lora_B): ModuleDict(
       (default): Linear(in_features=64, out_features=1024, bias=False)
     )
     (lora_embedding_A): ParameterDict()
     (lora_embedding_B): ParameterDict()
     (lora_magnitude_vector): ModuleDict()
   )
   (v_proj): lora.Linear4bit(
     (base_layer): Linear4bit(in_features=4096, out_features=1024, bias=False)
     (lora_dropout): ModuleDict(
       (default): Identity()
     )
     (lora_A): ModuleDict(
       (default): Linear(in_features=4096, out_features=64, bias=False)
     )
     (lora_B): ModuleDict(
       (default): Linear(in_features=64, out_features=1024, bias=False)
     )
     (lora_embedding_A): ParameterDict()
     (lora_embedding_B): ParameterDict()
     (lora_magnitude_vector): ModuleDict()
   )
   (o_proj): lora.Linear4bit(
     (base_layer): Linear4bit(in_features=4096, out_features=4096, bias=False)
     (lora_dropout): ModuleDict(
       (default): Identity()
     )
     (lora_A): ModuleDict(
       (default): Linear(in_features=4096, out_features=64, bias=False)
     )
     (lora_B): ModuleDict(
       (default): Linear(in_features=64, out_features=4096, bias=False)
     )
     (lora_embedding_A): ParameterDict()
     (lora_embedding_B): ParameterDict()
     (lora_magnitude_vector): ModuleDict()
   )
 ),
 lora.Linear4bit(
   (base_layer): Linear4bit(in_features=4096, out_features=4096, bias=False)
   (lora_dropout): ModuleDict(
     (default): Identity()
   )
   (lora_A): ModuleDict(
     (default): Linear(in_features=4096, out_features=64, bias=False)
   )
   (lora_B): ModuleDict(
     (default): Linear(in_features=64, out_features=4096, bias=False)
   )
   (lora_embedding_A): ParameterDict()
   (lora_embedding_B): ParameterDict()
   (lora_magnitude_vector): ModuleDict()
 ),
 Linear4bit(in_features=4096, out_features=4096, bias=False),
 ModuleDict(
   (default): Identity()
 ),
 Identity(),
 ModuleDict(
   (default): Linear(in_features=4096, out_features=64, bias=False)
 ),
 Linear(in_features=4096, out_features=64, bias=False),
 ModuleDict(
   (default): Linear(in_features=64, out_features=4096, bias=False)
 ),
 Linear(in_features=64, out_features=4096, bias=False),
 ParameterDict(),
 ParameterDict(),
 ModuleDict(),
 lora.Linear4bit(
   (base_layer): Linear4bit(in_features=4096, out_features=1024, bias=False)
   (lora_dropout): ModuleDict(
     (default): Identity()
   )
   (lora_A): ModuleDict(
     (default): Linear(in_features=4096, out_features=64, bias=False)
   )
   (lora_B): ModuleDict(
     (default): Linear(in_features=64, out_features=1024, bias=False)
   )
   (lora_embedding_A): ParameterDict()
   (lora_embedding_B): ParameterDict()
   (lora_magnitude_vector): ModuleDict()
 ),
 Linear4bit(in_features=4096, out_features=1024, bias=False),
 ModuleDict(
   (default): Identity()
 ),
 Identity(),
 ModuleDict(
   (default): Linear(in_features=4096, out_features=64, bias=False)
 ),
 Linear(in_features=4096, out_features=64, bias=False),
 ModuleDict(
   (default): Linear(in_features=64, out_features=1024, bias=False)
 ),
 Linear(in_features=64, out_features=1024, bias=False),
 ParameterDict(),
 ParameterDict(),
 ModuleDict(),
 lora.Linear4bit(
   (base_layer): Linear4bit(in_features=4096, out_features=1024, bias=False)
   (lora_dropout): ModuleDict(
     (default): Identity()
   )
   (lora_A): ModuleDict(
     (default): Linear(in_features=4096, out_features=64, bias=False)
   )
   (lora_B): ModuleDict(
     (default): Linear(in_features=64, out_features=1024, bias=False)
   )
   (lora_embedding_A): ParameterDict()
   (lora_embedding_B): ParameterDict()
   (lora_magnitude_vector): ModuleDict()
 ),
 Linear4bit(in_features=4096, out_features=1024, bias=False),
 ModuleDict(
   (default): Identity()
 ),
 Identity(),
 ModuleDict(
   (default): Linear(in_features=4096, out_features=64, bias=False)
 ),
 Linear(in_features=4096, out_features=64, bias=False),
 ModuleDict(
   (default): Linear(in_features=64, out_features=1024, bias=False)
 ),
 Linear(in_features=64, out_features=1024, bias=False),
 ParameterDict(),
 ParameterDict(),
 ModuleDict(),
 lora.Linear4bit(
   (base_layer): Linear4bit(in_features=4096, out_features=4096, bias=False)
   (lora_dropout): ModuleDict(
     (default): Identity()
   )
   (lora_A): ModuleDict(
     (default): Linear(in_features=4096, out_features=64, bias=False)
   )
   (lora_B): ModuleDict(
     (default): Linear(in_features=64, out_features=4096, bias=False)
   )
   (lora_embedding_A): ParameterDict()
   (lora_embedding_B): ParameterDict()
   (lora_magnitude_vector): ModuleDict()
 ),
 Linear4bit(in_features=4096, out_features=4096, bias=False),
 ModuleDict(
   (default): Identity()
 ),
 Identity(),
 ModuleDict(
   (default): Linear(in_features=4096, out_features=64, bias=False)
 ),
 Linear(in_features=4096, out_features=64, bias=False),
 ModuleDict(
   (default): Linear(in_features=64, out_features=4096, bias=False)
 ),
 Linear(in_features=64, out_features=4096, bias=False),
 ParameterDict(),
 ParameterDict(),
 ModuleDict(),
 LlamaMLP(
   (gate_proj): lora.Linear4bit(
     (base_layer): Linear4bit(in_features=4096, out_features=14336, bias=False)
     (lora_dropout): ModuleDict(
       (default): Identity()
     )
     (lora_A): ModuleDict(
       (default): Linear(in_features=4096, out_features=64, bias=False)
     )
     (lora_B): ModuleDict(
       (default): Linear(in_features=64, out_features=14336, bias=False)
     )
     (lora_embedding_A): ParameterDict()
     (lora_embedding_B): ParameterDict()
     (lora_magnitude_vector): ModuleDict()
   )
   (up_proj): lora.Linear4bit(
     (base_layer): Linear4bit(in_features=4096, out_features=14336, bias=False)
     (lora_dropout): ModuleDict(
       (default): Identity()
     )
     (lora_A): ModuleDict(
       (default): Linear(in_features=4096, out_features=64, bias=False)
     )
     (lora_B): ModuleDict(
       (default): Linear(in_features=64, out_features=14336, bias=False)
     )
     (lora_embedding_A): ParameterDict()
     (lora_embedding_B): ParameterDict()
     (lora_magnitude_vector): ModuleDict()
   )
   (down_proj): lora.Linear4bit(
     (base_layer): Linear4bit(in_features=14336, out_features=4096, bias=False)
     (lora_dropout): ModuleDict(
       (default): Identity()
     )
     (lora_A): ModuleDict(
       (default): Linear(in_features=14336, out_features=64, bias=False)
     )
     (lora_B): ModuleDict(
       (default): Linear(in_features=64, out_features=4096, bias=False)
     )
     (lora_embedding_A): ParameterDict()
     (lora_embedding_B): ParameterDict()
     (lora_magnitude_vector): ModuleDict()
   )
   (act_fn): SiLU()
 ),
 lora.Linear4bit(
   (base_layer): Linear4bit(in_features=4096, out_features=14336, bias=False)
   (lora_dropout): ModuleDict(
     (default): Identity()
   )
   (lora_A): ModuleDict(
     (default): Linear(in_features=4096, out_features=64, bias=False)
   )
   (lora_B): ModuleDict(
     (default): Linear(in_features=64, out_features=14336, bias=False)
   )
   (lora_embedding_A): ParameterDict()
   (lora_embedding_B): ParameterDict()
   (lora_magnitude_vector): ModuleDict()
 ),
 Linear4bit(in_features=4096, out_features=14336, bias=False),
 ModuleDict(
   (default): Identity()
 ),
 Identity(),
 ModuleDict(
   (default): Linear(in_features=4096, out_features=64, bias=False)
 ),
 Linear(in_features=4096, out_features=64, bias=False),
 ModuleDict(
   (default): Linear(in_features=64, out_features=14336, bias=False)
 ),
 Linear(in_features=64, out_features=14336, bias=False),
 ParameterDict(),
 ParameterDict(),
 ModuleDict(),
 lora.Linear4bit(
   (base_layer): Linear4bit(in_features=4096, out_features=14336, bias=False)
   (lora_dropout): ModuleDict(
     (default): Identity()
   )
   (lora_A): ModuleDict(
     (default): Linear(in_features=4096, out_features=64, bias=False)
   )
   (lora_B): ModuleDict(
     (default): Linear(in_features=64, out_features=14336, bias=False)
   )
   (lora_embedding_A): ParameterDict()
   (lora_embedding_B): ParameterDict()
   (lora_magnitude_vector): ModuleDict()
 ),
 Linear4bit(in_features=4096, out_features=14336, bias=False),
 ModuleDict(
   (default): Identity()
 ),
 Identity(),
 ModuleDict(
   (default): Linear(in_features=4096, out_features=64, bias=False)
 ),
 Linear(in_features=4096, out_features=64, bias=False),
 ModuleDict(
   (default): Linear(in_features=64, out_features=14336, bias=False)
 ),
 Linear(in_features=64, out_features=14336, bias=False),
 ParameterDict(),
 ParameterDict(),
 ModuleDict(),
 lora.Linear4bit(
   (base_layer): Linear4bit(in_features=14336, out_features=4096, bias=False)
   (lora_dropout): ModuleDict(
     (default): Identity()
   )
   (lora_A): ModuleDict(
     (default): Linear(in_features=14336, out_features=64, bias=False)
   )
   (lora_B): ModuleDict(
     (default): Linear(in_features=64, out_features=4096, bias=False)
   )
   (lora_embedding_A): ParameterDict()
   (lora_embedding_B): ParameterDict()
   (lora_magnitude_vector): ModuleDict()
 ),
 Linear4bit(in_features=14336, out_features=4096, bias=False),
 ModuleDict(
   (default): Identity()
 ),
 Identity(),
 ModuleDict(
   (default): Linear(in_features=14336, out_features=64, bias=False)
 ),
 Linear(in_features=14336, out_features=64, bias=False),
 ModuleDict(
   (default): Linear(in_features=64, out_features=4096, bias=False)
 ),
 Linear(in_features=64, out_features=4096, bias=False),
 ParameterDict(),
 ParameterDict(),
 ModuleDict(),
 SiLU(),
 LlamaRMSNorm((4096,), eps=1e-05),
 LlamaRMSNorm((4096,), eps=1e-05),
 LlamaDecoderLayer(
   (self_attn): LlamaAttention(
     (q_proj): lora.Linear4bit(
       (base_layer): Linear4bit(in_features=4096, out_features=4096, bias=False)
       (lora_dropout): ModuleDict(
         (default): Identity()
       )
       (lora_A): ModuleDict(
         (default): Linear(in_features=4096, out_features=64, bias=False)
       )
       (lora_B): ModuleDict(
         (default): Linear(in_features=64, out_features=4096, bias=False)
       )
       (lora_embedding_A): ParameterDict()
       (lora_embedding_B): ParameterDict()
       (lora_magnitude_vector): ModuleDict()
     )
     (k_proj): lora.Linear4bit(
       (base_layer): Linear4bit(in_features=4096, out_features=1024, bias=False)
       (lora_dropout): ModuleDict(
         (default): Identity()
       )
       (lora_A): ModuleDict(
         (default): Linear(in_features=4096, out_features=64, bias=False)
       )
       (lora_B): ModuleDict(
         (default): Linear(in_features=64, out_features=1024, bias=False)
       )
       (lora_embedding_A): ParameterDict()
       (lora_embedding_B): ParameterDict()
       (lora_magnitude_vector): ModuleDict()
     )
     (v_proj): lora.Linear4bit(
       (base_layer): Linear4bit(in_features=4096, out_features=1024, bias=False)
       (lora_dropout): ModuleDict(
         (default): Identity()
       )
       (lora_A): ModuleDict(
         (default): Linear(in_features=4096, out_features=64, bias=False)
       )
       (lora_B): ModuleDict(
         (default): Linear(in_features=64, out_features=1024, bias=False)
       )
       (lora_embedding_A): ParameterDict()
       (lora_embedding_B): ParameterDict()
       (lora_magnitude_vector): ModuleDict()
     )
     (o_proj): lora.Linear4bit(
       (base_layer): Linear4bit(in_features=4096, out_features=4096, bias=False)
       (lora_dropout): ModuleDict(
         (default): Identity()
       )
       (lora_A): ModuleDict(
         (default): Linear(in_features=4096, out_features=64, bias=False)
       )
       (lora_B): ModuleDict(
         (default): Linear(in_features=64, out_features=4096, bias=False)
       )
       (lora_embedding_A): ParameterDict()
       (lora_embedding_B): ParameterDict()
       (lora_magnitude_vector): ModuleDict()
     )
   )
   (mlp): LlamaMLP(
     (gate_proj): lora.Linear4bit(
       (base_layer): Linear4bit(in_features=4096, out_features=14336, bias=False)
       (lora_dropout): ModuleDict(
         (default): Identity()
       )
       (lora_A): ModuleDict(
         (default): Linear(in_features=4096, out_features=64, bias=False)
       )
       (lora_B): ModuleDict(
         (default): Linear(in_features=64, out_features=14336, bias=False)
       )
       (lora_embedding_A): ParameterDict()
       (lora_embedding_B): ParameterDict()
       (lora_magnitude_vector): ModuleDict()
     )
     (up_proj): lora.Linear4bit(
       (base_layer): Linear4bit(in_features=4096, out_features=14336, bias=False)
       (lora_dropout): ModuleDict(
         (default): Identity()
       )
       (lora_A): ModuleDict(
         (default): Linear(in_features=4096, out_features=64, bias=False)
       )
       (lora_B): ModuleDict(
         (default): Linear(in_features=64, out_features=14336, bias=False)
       )
       (lora_embedding_A): ParameterDict()
       (lora_embedding_B): ParameterDict()
       (lora_magnitude_vector): ModuleDict()
     )
     (down_proj): lora.Linear4bit(
       (base_layer): Linear4bit(in_features=14336, out_features=4096, bias=False)
       (lora_dropout): ModuleDict(
         (default): Identity()
       )
       (lora_A): ModuleDict(
         (default): Linear(in_features=14336, out_features=64, bias=False)
       )
       (lora_B): ModuleDict(
         (default): Linear(in_features=64, out_features=4096, bias=False)
       )
       (lora_embedding_A): ParameterDict()
       (lora_embedding_B): ParameterDict()
       (lora_magnitude_vector): ModuleDict()
     )
     (act_fn): SiLU()
   )
   (input_layernorm): LlamaRMSNorm((4096,), eps=1e-05)
   (post_attention_layernorm): LlamaRMSNorm((4096,), eps=1e-05)
 ),
 LlamaAttention(
   (q_proj): lora.Linear4bit(
     (base_layer): Linear4bit(in_features=4096, out_features=4096, bias=False)
     (lora_dropout): ModuleDict(
       (default): Identity()
     )
     (lora_A): ModuleDict(
       (default): Linear(in_features=4096, out_features=64, bias=False)
     )
     (lora_B): ModuleDict(
       (default): Linear(in_features=64, out_features=4096, bias=False)
     )
     (lora_embedding_A): ParameterDict()
     (lora_embedding_B): ParameterDict()
     (lora_magnitude_vector): ModuleDict()
   )
   (k_proj): lora.Linear4bit(
     (base_layer): Linear4bit(in_features=4096, out_features=1024, bias=False)
     (lora_dropout): ModuleDict(
       (default): Identity()
     )
     (lora_A): ModuleDict(
       (default): Linear(in_features=4096, out_features=64, bias=False)
     )
     (lora_B): ModuleDict(
       (default): Linear(in_features=64, out_features=1024, bias=False)
     )
     (lora_embedding_A): ParameterDict()
     (lora_embedding_B): ParameterDict()
     (lora_magnitude_vector): ModuleDict()
   )
   (v_proj): lora.Linear4bit(
     (base_layer): Linear4bit(in_features=4096, out_features=1024, bias=False)
     (lora_dropout): ModuleDict(
       (default): Identity()
     )
     (lora_A): ModuleDict(
       (default): Linear(in_features=4096, out_features=64, bias=False)
     )
     (lora_B): ModuleDict(
       (default): Linear(in_features=64, out_features=1024, bias=False)
     )
     (lora_embedding_A): ParameterDict()
     (lora_embedding_B): ParameterDict()
     (lora_magnitude_vector): ModuleDict()
   )
   (o_proj): lora.Linear4bit(
     (base_layer): Linear4bit(in_features=4096, out_features=4096, bias=False)
     (lora_dropout): ModuleDict(
       (default): Identity()
     )
     (lora_A): ModuleDict(
       (default): Linear(in_features=4096, out_features=64, bias=False)
     )
     (lora_B): ModuleDict(
       (default): Linear(in_features=64, out_features=4096, bias=False)
     )
     (lora_embedding_A): ParameterDict()
     (lora_embedding_B): ParameterDict()
     (lora_magnitude_vector): ModuleDict()
   )
 ),
 lora.Linear4bit(
   (base_layer): Linear4bit(in_features=4096, out_features=4096, bias=False)
   (lora_dropout): ModuleDict(
     (default): Identity()
   )
   (lora_A): ModuleDict(
     (default): Linear(in_features=4096, out_features=64, bias=False)
   )
   (lora_B): ModuleDict(
     (default): Linear(in_features=64, out_features=4096, bias=False)
   )
   (lora_embedding_A): ParameterDict()
   (lora_embedding_B): ParameterDict()
   (lora_magnitude_vector): ModuleDict()
 ),
 Linear4bit(in_features=4096, out_features=4096, bias=False),
 ModuleDict(
   (default): Identity()
 ),
 Identity(),
 ModuleDict(
   (default): Linear(in_features=4096, out_features=64, bias=False)
 ),
 Linear(in_features=4096, out_features=64, bias=False),
 ModuleDict(
   (default): Linear(in_features=64, out_features=4096, bias=False)
 ),
 Linear(in_features=64, out_features=4096, bias=False),
 ParameterDict(),
 ParameterDict(),
 ModuleDict(),
 lora.Linear4bit(
   (base_layer): Linear4bit(in_features=4096, out_features=1024, bias=False)
   (lora_dropout): ModuleDict(
     (default): Identity()
   )
   (lora_A): ModuleDict(
     (default): Linear(in_features=4096, out_features=64, bias=False)
   )
   (lora_B): ModuleDict(
     (default): Linear(in_features=64, out_features=1024, bias=False)
   )
   (lora_embedding_A): ParameterDict()
   (lora_embedding_B): ParameterDict()
   (lora_magnitude_vector): ModuleDict()
 ),
 Linear4bit(in_features=4096, out_features=1024, bias=False),
 ModuleDict(
   (default): Identity()
 ),
 Identity(),
 ModuleDict(
   (default): Linear(in_features=4096, out_features=64, bias=False)
 ),
 Linear(in_features=4096, out_features=64, bias=False),
 ModuleDict(
   (default): Linear(in_features=64, out_features=1024, bias=False)
 ),
 Linear(in_features=64, out_features=1024, bias=False),
 ParameterDict(),
 ParameterDict(),
 ModuleDict(),
 lora.Linear4bit(
   (base_layer): Linear4bit(in_features=4096, out_features=1024, bias=False)
   (lora_dropout): ModuleDict(
     (default): Identity()
   )
   (lora_A): ModuleDict(
     (default): Linear(in_features=4096, out_features=64, bias=False)
   )
   (lora_B): ModuleDict(
     (default): Linear(in_features=64, out_features=1024, bias=False)
   )
   (lora_embedding_A): ParameterDict()
   (lora_embedding_B): ParameterDict()
   (lora_magnitude_vector): ModuleDict()
 ),
 Linear4bit(in_features=4096, out_features=1024, bias=False),
 ModuleDict(
   (default): Identity()
 ),
 Identity(),
 ModuleDict(
   (default): Linear(in_features=4096, out_features=64, bias=False)
 ),
 Linear(in_features=4096, out_features=64, bias=False),
 ModuleDict(
   (default): Linear(in_features=64, out_features=1024, bias=False)
 ),
 Linear(in_features=64, out_features=1024, bias=False),
 ParameterDict(),
 ParameterDict(),
 ModuleDict(),
 lora.Linear4bit(
   (base_layer): Linear4bit(in_features=4096, out_features=4096, bias=False)
   (lora_dropout): ModuleDict(
     (default): Identity()
   )
   (lora_A): ModuleDict(
     (default): Linear(in_features=4096, out_features=64, bias=False)
   )
   (lora_B): ModuleDict(
     (default): Linear(in_features=64, out_features=4096, bias=False)
   )
   (lora_embedding_A): ParameterDict()
   (lora_embedding_B): ParameterDict()
   (lora_magnitude_vector): ModuleDict()
 ),
 Linear4bit(in_features=4096, out_features=4096, bias=False),
 ModuleDict(
   (default): Identity()
 ),
 Identity(),
 ModuleDict(
   (default): Linear(in_features=4096, out_features=64, bias=False)
 ),
 Linear(in_features=4096, out_features=64, bias=False),
 ModuleDict(
   (default): Linear(in_features=64, out_features=4096, bias=False)
 ),
 Linear(in_features=64, out_features=4096, bias=False),
 ParameterDict(),
 ParameterDict(),
 ModuleDict(),
 LlamaMLP(
   (gate_proj): lora.Linear4bit(
     (base_layer): Linear4bit(in_features=4096, out_features=14336, bias=False)
     (lora_dropout): ModuleDict(
       (default): Identity()
     )
     (lora_A): ModuleDict(
       (default): Linear(in_features=4096, out_features=64, bias=False)
     )
     (lora_B): ModuleDict(
       (default): Linear(in_features=64, out_features=14336, bias=False)
     )
     (lora_embedding_A): ParameterDict()
     (lora_embedding_B): ParameterDict()
     (lora_magnitude_vector): ModuleDict()
   )
   (up_proj): lora.Linear4bit(
     (base_layer): Linear4bit(in_features=4096, out_features=14336, bias=False)
     (lora_dropout): ModuleDict(
       (default): Identity()
     )
     (lora_A): ModuleDict(
       (default): Linear(in_features=4096, out_features=64, bias=False)
     )
     (lora_B): ModuleDict(
       (default): Linear(in_features=64, out_features=14336, bias=False)
     )
     (lora_embedding_A): ParameterDict()
     (lora_embedding_B): ParameterDict()
     (lora_magnitude_vector): ModuleDict()
   )
   (down_proj): lora.Linear4bit(
     (base_layer): Linear4bit(in_features=14336, out_features=4096, bias=False)
     (lora_dropout): ModuleDict(
       (default): Identity()
     )
     (lora_A): ModuleDict(
       (default): Linear(in_features=14336, out_features=64, bias=False)
     )
     (lora_B): ModuleDict(
       (default): Linear(in_features=64, out_features=4096, bias=False)
     )
     (lora_embedding_A): ParameterDict()
     (lora_embedding_B): ParameterDict()
     (lora_magnitude_vector): ModuleDict()
   )
   (act_fn): SiLU()
 ),
 lora.Linear4bit(
   (base_layer): Linear4bit(in_features=4096, out_features=14336, bias=False)
   (lora_dropout): ModuleDict(
     (default): Identity()
   )
   (lora_A): ModuleDict(
     (default): Linear(in_features=4096, out_features=64, bias=False)
   )
   (lora_B): ModuleDict(
     (default): Linear(in_features=64, out_features=14336, bias=False)
   )
   (lora_embedding_A): ParameterDict()
   (lora_embedding_B): ParameterDict()
   (lora_magnitude_vector): ModuleDict()
 ),
 Linear4bit(in_features=4096, out_features=14336, bias=False),
 ModuleDict(
   (default): Identity()
 ),
 Identity(),
 ModuleDict(
   (default): Linear(in_features=4096, out_features=64, bias=False)
 ),
 Linear(in_features=4096, out_features=64, bias=False),
 ModuleDict(
   (default): Linear(in_features=64, out_features=14336, bias=False)
 ),
 Linear(in_features=64, out_features=14336, bias=False),
 ParameterDict(),
 ParameterDict(),
 ModuleDict(),
 lora.Linear4bit(
   (base_layer): Linear4bit(in_features=4096, out_features=14336, bias=False)
   (lora_dropout): ModuleDict(
     (default): Identity()
   )
   (lora_A): ModuleDict(
     (default): Linear(in_features=4096, out_features=64, bias=False)
   )
   (lora_B): ModuleDict(
     (default): Linear(in_features=64, out_features=14336, bias=False)
   )
   (lora_embedding_A): ParameterDict()
   (lora_embedding_B): ParameterDict()
   (lora_magnitude_vector): ModuleDict()
 ),
 Linear4bit(in_features=4096, out_features=14336, bias=False),
 ModuleDict(
   (default): Identity()
 ),
 Identity(),
 ModuleDict(
   (default): Linear(in_features=4096, out_features=64, bias=False)
 ),
 Linear(in_features=4096, out_features=64, bias=False),
 ModuleDict(
   (default): Linear(in_features=64, out_features=14336, bias=False)
 ),
 Linear(in_features=64, out_features=14336, bias=False),
 ParameterDict(),
 ParameterDict(),
 ModuleDict(),
 lora.Linear4bit(
   (base_layer): Linear4bit(in_features=14336, out_features=4096, bias=False)
   (lora_dropout): ModuleDict(
     (default): Identity()
   )
   (lora_A): ModuleDict(
     (default): Linear(in_features=14336, out_features=64, bias=False)
   )
   (lora_B): ModuleDict(
     (default): Linear(in_features=64, out_features=4096, bias=False)
   )
   (lora_embedding_A): ParameterDict()
   (lora_embedding_B): ParameterDict()
   (lora_magnitude_vector): ModuleDict()
 ),
 Linear4bit(in_features=14336, out_features=4096, bias=False),
 ModuleDict(
   (default): Identity()
 ),
 Identity(),
 ModuleDict(
   (default): Linear(in_features=14336, out_features=64, bias=False)
 ),
 Linear(in_features=14336, out_features=64, bias=False),
 ModuleDict(
   (default): Linear(in_features=64, out_features=4096, bias=False)
 ),
 Linear(in_features=64, out_features=4096, bias=False),
 ParameterDict(),
 ParameterDict(),
 ModuleDict(),
 SiLU(),
 LlamaRMSNorm((4096,), eps=1e-05),
 LlamaRMSNorm((4096,), eps=1e-05),
 LlamaDecoderLayer(
   (self_attn): LlamaAttention(
     (q_proj): lora.Linear4bit(
       (base_layer): Linear4bit(in_features=4096, out_features=4096, bias=False)
       (lora_dropout): ModuleDict(
         (default): Identity()
       )
       (lora_A): ModuleDict(
         (default): Linear(in_features=4096, out_features=64, bias=False)
       )
       (lora_B): ModuleDict(
         (default): Linear(in_features=64, out_features=4096, bias=False)
       )
       (lora_embedding_A): ParameterDict()
       (lora_embedding_B): ParameterDict()
       (lora_magnitude_vector): ModuleDict()
     )
     (k_proj): lora.Linear4bit(
       (base_layer): Linear4bit(in_features=4096, out_features=1024, bias=False)
       (lora_dropout): ModuleDict(
         (default): Identity()
       )
       (lora_A): ModuleDict(
         (default): Linear(in_features=4096, out_features=64, bias=False)
       )
       (lora_B): ModuleDict(
         (default): Linear(in_features=64, out_features=1024, bias=False)
       )
       (lora_embedding_A): ParameterDict()
       (lora_embedding_B): ParameterDict()
       (lora_magnitude_vector): ModuleDict()
     )
     (v_proj): lora.Linear4bit(
       (base_layer): Linear4bit(in_features=4096, out_features=1024, bias=False)
       (lora_dropout): ModuleDict(
         (default): Identity()
       )
       (lora_A): ModuleDict(
         (default): Linear(in_features=4096, out_features=64, bias=False)
       )
       (lora_B): ModuleDict(
         (default): Linear(in_features=64, out_features=1024, bias=False)
       )
       (lora_embedding_A): ParameterDict()
       (lora_embedding_B): ParameterDict()
       (lora_magnitude_vector): ModuleDict()
     )
     (o_proj): lora.Linear4bit(
       (base_layer): Linear4bit(in_features=4096, out_features=4096, bias=False)
       (lora_dropout): ModuleDict(
         (default): Identity()
       )
       (lora_A): ModuleDict(
         (default): Linear(in_features=4096, out_features=64, bias=False)
       )
       (lora_B): ModuleDict(
         (default): Linear(in_features=64, out_features=4096, bias=False)
       )
       (lora_embedding_A): ParameterDict()
       (lora_embedding_B): ParameterDict()
       (lora_magnitude_vector): ModuleDict()
     )
   )
   (mlp): LlamaMLP(
     (gate_proj): lora.Linear4bit(
       (base_layer): Linear4bit(in_features=4096, out_features=14336, bias=False)
       (lora_dropout): ModuleDict(
         (default): Identity()
       )
       (lora_A): ModuleDict(
         (default): Linear(in_features=4096, out_features=64, bias=False)
       )
       (lora_B): ModuleDict(
         (default): Linear(in_features=64, out_features=14336, bias=False)
       )
       (lora_embedding_A): ParameterDict()
       (lora_embedding_B): ParameterDict()
       (lora_magnitude_vector): ModuleDict()
     )
     (up_proj): lora.Linear4bit(
       (base_layer): Linear4bit(in_features=4096, out_features=14336, bias=False)
       (lora_dropout): ModuleDict(
         (default): Identity()
       )
       (lora_A): ModuleDict(
         (default): Linear(in_features=4096, out_features=64, bias=False)
       )
       (lora_B): ModuleDict(
         (default): Linear(in_features=64, out_features=14336, bias=False)
       )
       (lora_embedding_A): ParameterDict()
       (lora_embedding_B): ParameterDict()
       (lora_magnitude_vector): ModuleDict()
     )
     (down_proj): lora.Linear4bit(
       (base_layer): Linear4bit(in_features=14336, out_features=4096, bias=False)
       (lora_dropout): ModuleDict(
         (default): Identity()
       )
       (lora_A): ModuleDict(
         (default): Linear(in_features=14336, out_features=64, bias=False)
       )
       (lora_B): ModuleDict(
         (default): Linear(in_features=64, out_features=4096, bias=False)
       )
       (lora_embedding_A): ParameterDict()
       (lora_embedding_B): ParameterDict()
       (lora_magnitude_vector): ModuleDict()
     )
     (act_fn): SiLU()
   )
   (input_layernorm): LlamaRMSNorm((4096,), eps=1e-05)
   (post_attention_layernorm): LlamaRMSNorm((4096,), eps=1e-05)
 ),
 LlamaAttention(
   (q_proj): lora.Linear4bit(
     (base_layer): Linear4bit(in_features=4096, out_features=4096, bias=False)
     (lora_dropout): ModuleDict(
       (default): Identity()
     )
     (lora_A): ModuleDict(
       (default): Linear(in_features=4096, out_features=64, bias=False)
     )
     (lora_B): ModuleDict(
       (default): Linear(in_features=64, out_features=4096, bias=False)
     )
     (lora_embedding_A): ParameterDict()
     (lora_embedding_B): ParameterDict()
     (lora_magnitude_vector): ModuleDict()
   )
   (k_proj): lora.Linear4bit(
     (base_layer): Linear4bit(in_features=4096, out_features=1024, bias=False)
     (lora_dropout): ModuleDict(
       (default): Identity()
     )
     (lora_A): ModuleDict(
       (default): Linear(in_features=4096, out_features=64, bias=False)
     )
     (lora_B): ModuleDict(
       (default): Linear(in_features=64, out_features=1024, bias=False)
     )
     (lora_embedding_A): ParameterDict()
     (lora_embedding_B): ParameterDict()
     (lora_magnitude_vector): ModuleDict()
   )
   (v_proj): lora.Linear4bit(
     (base_layer): Linear4bit(in_features=4096, out_features=1024, bias=False)
     (lora_dropout): ModuleDict(
       (default): Identity()
     )
     (lora_A): ModuleDict(
       (default): Linear(in_features=4096, out_features=64, bias=False)
     )
     (lora_B): ModuleDict(
       (default): Linear(in_features=64, out_features=1024, bias=False)
     )
     (lora_embedding_A): ParameterDict()
     (lora_embedding_B): ParameterDict()
     (lora_magnitude_vector): ModuleDict()
   )
   (o_proj): lora.Linear4bit(
     (base_layer): Linear4bit(in_features=4096, out_features=4096, bias=False)
     (lora_dropout): ModuleDict(
       (default): Identity()
     )
     (lora_A): ModuleDict(
       (default): Linear(in_features=4096, out_features=64, bias=False)
     )
     (lora_B): ModuleDict(
       (default): Linear(in_features=64, out_features=4096, bias=False)
     )
     (lora_embedding_A): ParameterDict()
     (lora_embedding_B): ParameterDict()
     (lora_magnitude_vector): ModuleDict()
   )
 ),
 lora.Linear4bit(
   (base_layer): Linear4bit(in_features=4096, out_features=4096, bias=False)
   (lora_dropout): ModuleDict(
     (default): Identity()
   )
   (lora_A): ModuleDict(
     (default): Linear(in_features=4096, out_features=64, bias=False)
   )
   (lora_B): ModuleDict(
     (default): Linear(in_features=64, out_features=4096, bias=False)
   )
   (lora_embedding_A): ParameterDict()
   (lora_embedding_B): ParameterDict()
   (lora_magnitude_vector): ModuleDict()
 ),
 Linear4bit(in_features=4096, out_features=4096, bias=False),
 ModuleDict(
   (default): Identity()
 ),
 Identity(),
 ModuleDict(
   (default): Linear(in_features=4096, out_features=64, bias=False)
 ),
 Linear(in_features=4096, out_features=64, bias=False),
 ModuleDict(
   (default): Linear(in_features=64, out_features=4096, bias=False)
 ),
 Linear(in_features=64, out_features=4096, bias=False),
 ParameterDict(),
 ParameterDict(),
 ModuleDict(),
 lora.Linear4bit(
   (base_layer): Linear4bit(in_features=4096, out_features=1024, bias=False)
   (lora_dropout): ModuleDict(
     (default): Identity()
   )
   (lora_A): ModuleDict(
     (default): Linear(in_features=4096, out_features=64, bias=False)
   )
   (lora_B): ModuleDict(
     (default): Linear(in_features=64, out_features=1024, bias=False)
   )
   (lora_embedding_A): ParameterDict()
   (lora_embedding_B): ParameterDict()
   (lora_magnitude_vector): ModuleDict()
 ),
 Linear4bit(in_features=4096, out_features=1024, bias=False),
 ModuleDict(
   (default): Identity()
 ),
 Identity(),
 ModuleDict(
   (default): Linear(in_features=4096, out_features=64, bias=False)
 ),
 Linear(in_features=4096, out_features=64, bias=False),
 ModuleDict(
   (default): Linear(in_features=64, out_features=1024, bias=False)
 ),
 Linear(in_features=64, out_features=1024, bias=False),
 ParameterDict(),
 ParameterDict(),
 ModuleDict(),
 lora.Linear4bit(
   (base_layer): Linear4bit(in_features=4096, out_features=1024, bias=False)
   (lora_dropout): ModuleDict(
     (default): Identity()
   )
   (lora_A): ModuleDict(
     (default): Linear(in_features=4096, out_features=64, bias=False)
   )
   (lora_B): ModuleDict(
     (default): Linear(in_features=64, out_features=1024, bias=False)
   )
   (lora_embedding_A): ParameterDict()
   (lora_embedding_B): ParameterDict()
   (lora_magnitude_vector): ModuleDict()
 ),
 Linear4bit(in_features=4096, out_features=1024, bias=False),
 ModuleDict(
   (default): Identity()
 ),
 Identity(),
 ModuleDict(
   (default): Linear(in_features=4096, out_features=64, bias=False)
 ),
 Linear(in_features=4096, out_features=64, bias=False),
 ModuleDict(
   (default): Linear(in_features=64, out_features=1024, bias=False)
 ),
 Linear(in_features=64, out_features=1024, bias=False),
 ParameterDict(),
 ParameterDict(),
 ModuleDict(),
 lora.Linear4bit(
   (base_layer): Linear4bit(in_features=4096, out_features=4096, bias=False)
   (lora_dropout): ModuleDict(
     (default): Identity()
   )
   (lora_A): ModuleDict(
     (default): Linear(in_features=4096, out_features=64, bias=False)
   )
   (lora_B): ModuleDict(
     (default): Linear(in_features=64, out_features=4096, bias=False)
   )
   (lora_embedding_A): ParameterDict()
   (lora_embedding_B): ParameterDict()
   (lora_magnitude_vector): ModuleDict()
 ),
 Linear4bit(in_features=4096, out_features=4096, bias=False),
 ModuleDict(
   (default): Identity()
 ),
 Identity(),
 ModuleDict(
   (default): Linear(in_features=4096, out_features=64, bias=False)
 ),
 Linear(in_features=4096, out_features=64, bias=False),
 ModuleDict(
   (default): Linear(in_features=64, out_features=4096, bias=False)
 ),
 Linear(in_features=64, out_features=4096, bias=False),
 ParameterDict(),
 ParameterDict(),
 ModuleDict(),
 LlamaMLP(
   (gate_proj): lora.Linear4bit(
     (base_layer): Linear4bit(in_features=4096, out_features=14336, bias=False)
     (lora_dropout): ModuleDict(
       (default): Identity()
     )
     (lora_A): ModuleDict(
       (default): Linear(in_features=4096, out_features=64, bias=False)
     )
     (lora_B): ModuleDict(
       (default): Linear(in_features=64, out_features=14336, bias=False)
     )
     (lora_embedding_A): ParameterDict()
     (lora_embedding_B): ParameterDict()
     (lora_magnitude_vector): ModuleDict()
   )
   (up_proj): lora.Linear4bit(
     (base_layer): Linear4bit(in_features=4096, out_features=14336, bias=False)
     (lora_dropout): ModuleDict(
       (default): Identity()
     )
     (lora_A): ModuleDict(
       (default): Linear(in_features=4096, out_features=64, bias=False)
     )
     (lora_B): ModuleDict(
       (default): Linear(in_features=64, out_features=14336, bias=False)
     )
     (lora_embedding_A): ParameterDict()
     (lora_embedding_B): ParameterDict()
     (lora_magnitude_vector): ModuleDict()
   )
   (down_proj): lora.Linear4bit(
     (base_layer): Linear4bit(in_features=14336, out_features=4096, bias=False)
     (lora_dropout): ModuleDict(
       (default): Identity()
     )
     (lora_A): ModuleDict(
       (default): Linear(in_features=14336, out_features=64, bias=False)
     )
     (lora_B): ModuleDict(
       (default): Linear(in_features=64, out_features=4096, bias=False)
     )
     (lora_embedding_A): ParameterDict()
     (lora_embedding_B): ParameterDict()
     (lora_magnitude_vector): ModuleDict()
   )
   (act_fn): SiLU()
 ),
 lora.Linear4bit(
   (base_layer): Linear4bit(in_features=4096, out_features=14336, bias=False)
   (lora_dropout): ModuleDict(
     (default): Identity()
   )
   (lora_A): ModuleDict(
     (default): Linear(in_features=4096, out_features=64, bias=False)
   )
   (lora_B): ModuleDict(
     (default): Linear(in_features=64, out_features=14336, bias=False)
   )
   (lora_embedding_A): ParameterDict()
   (lora_embedding_B): ParameterDict()
   (lora_magnitude_vector): ModuleDict()
 ),
 Linear4bit(in_features=4096, out_features=14336, bias=False),
 ModuleDict(
   (default): Identity()
 ),
 Identity(),
 ModuleDict(
   (default): Linear(in_features=4096, out_features=64, bias=False)
 ),
 Linear(in_features=4096, out_features=64, bias=False),
 ModuleDict(
   (default): Linear(in_features=64, out_features=14336, bias=False)
 ),
 Linear(in_features=64, out_features=14336, bias=False),
 ParameterDict(),
 ParameterDict(),
 ModuleDict(),
 lora.Linear4bit(
   (base_layer): Linear4bit(in_features=4096, out_features=14336, bias=False)
   (lora_dropout): ModuleDict(
     (default): Identity()
   )
   (lora_A): ModuleDict(
     (default): Linear(in_features=4096, out_features=64, bias=False)
   )
   (lora_B): ModuleDict(
     (default): Linear(in_features=64, out_features=14336, bias=False)
   )
   (lora_embedding_A): ParameterDict()
   (lora_embedding_B): ParameterDict()
   (lora_magnitude_vector): ModuleDict()
 ),
 Linear4bit(in_features=4096, out_features=14336, bias=False),
 ModuleDict(
   (default): Identity()
 ),
 Identity(),
 ModuleDict(
   (default): Linear(in_features=4096, out_features=64, bias=False)
 ),
 Linear(in_features=4096, out_features=64, bias=False),
 ModuleDict(
   (default): Linear(in_features=64, out_features=14336, bias=False)
 ),
 Linear(in_features=64, out_features=14336, bias=False),
 ParameterDict(),
 ParameterDict(),
 ModuleDict(),
 lora.Linear4bit(
   (base_layer): Linear4bit(in_features=14336, out_features=4096, bias=False)
   (lora_dropout): ModuleDict(
     (default): Identity()
   )
   (lora_A): ModuleDict(
     (default): Linear(in_features=14336, out_features=64, bias=False)
   )
   (lora_B): ModuleDict(
     (default): Linear(in_features=64, out_features=4096, bias=False)
   )
   (lora_embedding_A): ParameterDict()
   (lora_embedding_B): ParameterDict()
   (lora_magnitude_vector): ModuleDict()
 ),
 Linear4bit(in_features=14336, out_features=4096, bias=False),
 ModuleDict(
   (default): Identity()
 ),
 Identity(),
 ModuleDict(
   (default): Linear(in_features=14336, out_features=64, bias=False)
 ),
 Linear(in_features=14336, out_features=64, bias=False),
 ModuleDict(
   (default): Linear(in_features=64, out_features=4096, bias=False)
 ),
 Linear(in_features=64, out_features=4096, bias=False),
 ParameterDict(),
 ParameterDict(),
 ModuleDict(),
 SiLU(),
 ...]
  0%|                                                                                                       | 0/375 [01:53<?, ?it/s]
==((====))==  Unsloth - 2x faster free finetuning | Num GPUs = 1
   \\   /|    Num examples = 2,000 | Num Epochs = 3
…
[0;32m-> 1709[0m [38;5;28;01mraise[39;00m [38;5;167;01mAttributeError[39;00m([38;5;124mf[39m[38;5;124m"[39m[38;5;124m'[39m[38;5;132;01m{[39;00m[38;5;28mtype[39m([38;5;28mself[39m)[38;5;241m.[39m[38;5;18m__name__[39m[38;5;132;01m}[39;00m[38;5;124m'[39m[38;5;124m object has no attribute [39m[38;5;124m'[39m[38;5;132;01m{[39;00mname[38;5;132;01m}[39;00m[38;5;124m'[39m[38;5;124m"[39m)

[0;31mAttributeError[0m: 'LlamaAttention' object has no attribute 'rotary_emb'


PeftModelForCausalLM(
  (base_model): LoraModel(
    (model): LlamaForCausalLM(
      (model): LlamaModel(
        (embed_tokens): Embedding(128256, 4096, padding_idx=128004)
        (layers): ModuleList(
          (0-31): 32 x LlamaDecoderLayer(
            (self_attn): LlamaAttention(
              (q_proj): lora.Linear4bit(
                (base_layer): Linear4bit(in_features=4096, out_features=4096, bias=False)
                (lora_dropout): ModuleDict(
                  (default): Identity()
                )
                (lora_A): ModuleDict(
                  (default): Linear(in_features=4096, out_features=64, bias=False)
                )
                (lora_B): ModuleDict(
                  (default): Linear(in_features=64, out_features=4096, bias=False)
                )
                (lora_embedding_A): ParameterDict()
                (lora_embedding_B): ParameterDict()
                (lora_magnitude_vector): ModuleDict()
              )
              (k_proj): lora.Linear4bit(
                (base_layer): Linear4bit(in_features=4096, out_features=1024, bias=False)
                (lora_dropout): ModuleDict(
                  (default): Identity()
                )
                (lora_A): ModuleDict(
                  (default): Linear(in_features=4096, out_features=64, bias=False)
                )
                (lora_B): ModuleDict(
                  (default): Linear(in_features=64, out_features=1024, bias=False)
                )
                (lora_embedding_A): ParameterDict()
                (lora_embedding_B): ParameterDict()
                (lora_magnitude_vector): ModuleDict()
              )
              (v_proj): lora.Linear4bit(
                (base_layer): Linear4bit(in_features=4096, out_features=1024, bias=False)
                (lora_dropout): ModuleDict(
                  (default): Identity()
                )
                (lora_A): ModuleDict(
                  (default): Linear(in_features=4096, out_features=64, bias=False)
                )
                (lora_B): ModuleDict(
                  (default): Linear(in_features=64, out_features=1024, bias=False)
                )
                (lora_embedding_A): ParameterDict()
                (lora_embedding_B): ParameterDict()
                (lora_magnitude_vector): ModuleDict()
              )
              (o_proj): lora.Linear4bit(
                (base_layer): Linear4bit(in_features=4096, out_features=4096, bias=False)
                (lora_dropout): ModuleDict(
                  (default): Identity()
                )
                (lora_A): ModuleDict(
                  (default): Linear(in_features=4096, out_features=64, bias=False)
                )
                (lora_B): ModuleDict(
                  (default): Linear(in_features=64, out_features=4096, bias=False)
                )
                (lora_embedding_A): ParameterDict()
                (lora_embedding_B): ParameterDict()
                (lora_magnitude_vector): ModuleDict()
              )
            )
            (mlp): LlamaMLP(
              (gate_proj): lora.Linear4bit(
                (base_layer): Linear4bit(in_features=4096, out_features=14336, bias=False)
                (lora_dropout): ModuleDict(
                  (default): Identity()
                )
                (lora_A): ModuleDict(
                  (default): Linear(in_features=4096, out_features=64, bias=False)
                )
                (lora_B): ModuleDict(
                  (default): Linear(in_features=64, out_features=14336, bias=False)
                )
                (lora_embedding_A): ParameterDict()
                (lora_embedding_B): ParameterDict()
                (lora_magnitude_vector): ModuleDict()
              )
              (up_proj): lora.Linear4bit(
                (base_layer): Linear4bit(in_features=4096, out_features=14336, bias=False)
                (lora_dropout): ModuleDict(
                  (default): Identity()
                )
                (lora_A): ModuleDict(
                  (default): Linear(in_features=4096, out_features=64, bias=False)
                )
                (lora_B): ModuleDict(
                  (default): Linear(in_features=64, out_features=14336, bias=False)
                )
                (lora_embedding_A): ParameterDict()
                (lora_embedding_B): ParameterDict()
                (lora_magnitude_vector): ModuleDict()
              )
              (down_proj): lora.Linear4bit(
                (base_layer): Linear4bit(in_features=14336, out_features=4096, bias=False)
                (lora_dropout): ModuleDict(
                  (default): Identity()
                )
                (lora_A): ModuleDict(
                  (default): Linear(in_features=14336, out_features=64, bias=False)
                )
                (lora_B): ModuleDict(
                  (default): Linear(in_features=64, out_features=4096, bias=False)
                )
                (lora_embedding_A): ParameterDict()
                (lora_embedding_B): ParameterDict()
                (lora_magnitude_vector): ModuleDict()
              )
              (act_fn): SiLU()
            )
            (input_layernorm): LlamaRMSNorm((4096,), eps=1e-05)
            (post_attention_layernorm): LlamaRMSNorm((4096,), eps=1e-05)
          )
        )
        (norm): LlamaRMSNorm((4096,), eps=1e-05)
        (rotary_emb): LlamaRotaryEmbedding()
      )
      (lm_head): Linear(in_features=4096, out_features=128256, bias=False)
    )
  )
)
